autoencoders/checkpoint/autoencoder/val_best_cnn.pth (torch_old, 46895 bytes, 19 tensors)

encoder.0.weight f4 [8, 1, 2, 2]
0	0xbe0be3dc	-0.1366114
1	0x3ecd0798	0.40044856
2	0x3e7590fb	0.23981087
3	0x3ac13f7f	0.0014743655
4	0x3e9ac2ff	0.30226895
5	0xbecd9341	-0.40151408
6	0xbe02f7be	-0.12789819
7	0x3dd0f71a	0.10203381
8	0xbef28b9d	-0.4737214
9	0x3edfbd26	0.43698996
10	0x3d2822cd	0.041048814
11	0x3ee221c8	0.44166398
12	0xbe1507f7	-0.1455382
13	0x3cf3758f	0.029719142
14	0xbe0d4b70	-0.13798308
15	0xbe51fe32	-0.20507124
16	0xbe3dbcea	-0.18529096
17	0x3eb0f9df	0.34565637
18	0x3ee604ac	0.4492544
19	0x3e13546e	0.14387676
20	0x3e8f002b	0.27929816
21	0x3e5eccf6	0.21757874
22	0x3a43af90	0.00074648205
23	0xbebe8052	-0.37207276
24	0x3e00746f	0.12544416
25	0xbe2ff26e	-0.17182323
26	0x3e441bd3	0.19151239
27	0xbea69585	-0.3253595
28	0xbd0b42d3	-0.033999275
29	0xbe493ff0	-0.19653296
30	0xbeecda77	-0.46260425
31	0xbeecb323	-0.4623042

encoder.0.bias f4 [8]
0	0x3eec2ef3	0.4612957
1	0xba0f2a0a	-0.00054612814
2	0xbedcb019	-0.43103102
3	0x3da8015b	0.082033835
4	0xbd00e359	-0.031466816
5	0x3ed2dfdd	0.4118642
6	0x3ef147ac	0.47124994
7	0xbe038beb	-0.12846343

encoder.3.weight f4 [16, 8, 2, 2]
0	0xbdd95cea	-0.10613425
1	0xbdcf97d6	-0.10136382
2	0xbd406eae	-0.046980552
3	0xbdc6b9f8	-0.097034395
4	0x3e2329e0	0.15933943
5	0xbd8a5b5d	-0.067557074
6	0x3dba8ac1	0.091084965
7	0x3da3c5c6	0.07996707
8	0x3d291656	0.041281067
9	0x3db06455	0.08612887
10	0x3e1951e4	0.14972645
11	0x3d9a1dd1	0.07525218
12	0x3d9f60c3	0.07782128
13	0xbe17d5bf	-0.14827631
14	0xbc8071f0	-0.01567933
15	0x3b85371c	0.0040654074
16	0x3e0daada	0.13834706
17	0x3d9a7e13	0.07543578
18	0x3e0cd799	0.13754119
19	0x3e0c0ec8	0.13677514
20	0xbda8e0a8	-0.08245975
21	0x3ccd77d4	0.025081553
22	0x3e2c9b5b	0.16856138
23	0x3d7ff31f	0.062487718
24	0x3dccbf1d	0.099973895
25	0x3d9329cf	0.07185709
26	0xbd634df7	-0.055494275
27	0x3d2cddd7	0.04220375
28	0xbdfa0910	-0.1220876
29	0x3e27203c	0.1632089
30	0x3c255942	0.0100920815
31	0x3e0c3c05	0.1369477
32	0xbdfe7f72	-0.12426652
33	0xbe264aea	-0.16239515
34	0x3cad65e2	0.021166746
35	0xbcb982a8	-0.02264531
36	0xbd927094	-0.07150379
37	0x3dbdb212	0.0926248
38	0xbdeb8320	-0.114996195
39	0x3e1ea0c1	0.1549101
40	0xbe30b6a3	-0.1725717
41	0x3d147e8b	0.036253493
42	0xbdd3aeab	-0.1033605
43	0x3d1d15d2	0.038350888
44	0x3e32c627	0.17458402
45	0xbcadca39	-0.021214591
46	0x3d285c7e	0.041103832
47	0xbd8e7a0f	-0.069568746
48	0xbdb9c752	-0.090712205
49	0xbe1aa091	-0.15100314
50	0x3dd0f687	0.10203271
51	0xbb007fd0	-0.0019607432
52	0x3d7ac449	0.06122235
53	0xbe0b374d	-0.13595314
54	0xbe16b52f	-0.14717554
55	0xbe2498e5	-0.1607395
56	0xbdd0a129	-0.10186989
57	0xbcbc440f	-0.022981672
58	0xbcda815c	-0.026673011
59	0x3d9f31a7	0.07773142
60	0xbdadf26e	-0.084935054
61	0x3e306483	0.17225842
62	0xbda4fbb4	-0.08055821
63	0xbe2a3afa	-0.1662406
64	0x3e08ef6c	0.13372582
65	0xbde8aa46	-0.11360602
66	0x3c8a063c	0.016848676
67	0xbc8bcc40	-0.017065167
68	0xbd1705e5	-0.036870856
69	0x38f59ea1	0.00011712057
70	0xbe3201c0	-0.1738348
71	0x3e22c79d	0.15896459
72	0xbdeb06cf	-0.11475908
73	0x3ddcbf9a	0.107787326
74	0xbdd61431	-0.1045307
75	0xbd324c14	-0.043529585
76	0xbb88f2a3	-0.004179315
77	0xbd8eb11a	-0.06967373
78	0xbd9cd883	-0.07658484
79	0xbe185e9d	-0.14879842
80	0xbdf8a912	-0.121416226
81	0xbc07d795	-0.008291145
82	0xbd53a909	-0.051674876
83	0xbccb5c5e	-0.024824318
84	0x3d38bc60	0.045101523
85	0xbcb9a2fd	-0.022660727
86	0xbe2b5bd0	-0.16734242
87	0xbd8525ea	-0.06501372
88	0x3d5da36a	0.054110922
89	0x3d824d73	0.063624285
90	0x3daf3209	0.08554465
91	0x3c206868	0.009790517
92	0x3df786dc	0.12086269
93	0xbdf7bdf5	-0.12096778
94	0xbe17e949	-0.14835085
95	0xbd410f17	-0.04713353
96	0x3a99d7c9	0.0011737283
97	0x3e0368cc	0.12832946
98	0xbdd0ba88	-0.10191828
99	0xbdfd9170	-0.123812556
100	0xbb9cee65	-0.004789161
101	0x3d382521	0.044957284
102	0xbe251bce	-0.16123888
103	0xbd91e58c	-0.07123861
104	0xbe0e348b	-0.13887231
105	0x3d2919e4	0.041284457
106	0x3c87103b	0.016487231
107	0xbe20f8f7	-0.15719973
108	0xbdf10de3	-0.11770227
109	0x3c0632e0	0.0081908405
110	0xbd3fe662	-0.04685057
111	0xbe0c045b	-0.13673536
112	0xbd5b8cf5	-0.053601224
113	0xbe26487d	-0.1623859
114	0xbca5438d	-0.020173812
115	0xbca8d482	-0.020609144
116	0x3c1790cc	0.009250831
117	0x3c75f31e	0.015011577
118	0xbcfc3f26	-0.03079183
119	0x3e107496	0.14106974
120	0xbd819dd8	-0.063289344
121	0x3da3a06e	0.07989584
122	0x3d88b8eb	0.06675895
123	0xbcb16659	-0.021655248
124	0xbe04a4b4	-0.12953454
125	0xbe187ea2	-0.14892057
126	0x3d485cd7	0.048916664
127	0x3d5d617a	0.05404804
128	0x3ddba902	0.10725595
129	0xbda035c3	-0.07822754
130	0x3e122846	0.14273176
131	0x3e34f975	0.17673285
132	0xbce61c84	-0.02808977
133	0xbd8d1aeb	-0.068899
134	0xbd63949a	-0.05556164
135	0xbe1d61df	-0.15369366
136	0x3dd0d151	0.10196174
137	0x3c9dfc9e	0.019285496
138	0x3da6bdf5	0.081417
139	0x3de888d1	0.11354221
140	0xbd99c694	-0.07508579
141	0x3ad78473	0.0016442671
142	0x3e125348	0.14289582
143	0xbe0b8da8	-0.13628256
144	0x3e1f30fb	0.15546028
145	0x3dbc572c	0.09196314
146	0xbd637fa6	-0.055541657
147	0xbe13d607	-0.14437114
148	0x3dc16293	0.0944263
149	0x3dacc5ce	0.08436166
150	0xbda3ed7b	-0.0800428
151	0x3dac5b20	0.08415818
152	0x3d56e4c4	0.05246426
153	0x3e3230ec	0.17401475
154	0x3db929b1	0.09041155
155	0x3cdf9a02	0.027295116
156	0xbe3337bf	-0.17501734
157	0x3e134d0f	0.14384864
158	0x3e1b67ba	0.15176287
159	0xbd48c00e	-0.049011283
160	0xbc608577	-0.0137036955
161	0xbbdd4f65	-0.0067538493
162	0xbc2f8d04	-0.010714773
163	0x3dc5036f	0.096197955
164	0x3cc393a2	0.023874108
165	0xbe1d6cc4	-0.15373522
166	0x3d690e83	0.056898605
167	0xbdde57ea	-0.10856612
168	0x3d4f49b5	0.050607402
169	0x3d9dd5ad	0.07706771
170	0xbdacb8bd	-0.084336735
171	0x3df5744a	0.11985071
172	0x3b90f4c8	0.0044237114
173	0xbdb64241	-0.08899356
174	0x3e1b1245	0.15143688
175	0x3de73ad0	0.112905145
176	0x3e04947c	0.12947267
177	0xbdf8e649	-0.121532984
178	0xbe09dccc	-0.13463134
179	0xbe1f05d9	-0.15529574
180	0x3dea24c5	0.114327945
181	0x3dd32885	0.10310463
182	0xbddcb0a0	-0.10775876
183	0x3d8e08ea	0.06935294
184	0x3d1157e4	0.03548421
185	0xbd9a2b29	-0.075277634
186	0x3bc5cbd0	0.0060362592
187	0xbdda79e6	-0.106677815
188	0xbd54cefd	-0.051955212
189	0x3d8ed134	0.06973496
190	0x3ccba51d	0.024859006
191	0xbe06d1c4	-0.13165957
192	0x3d36331e	0.044482343
193	0xbd1080c7	-0.03527906
194	0xbe04fba6	-0.12986621
195	0xbe275dce	-0.16344377
196	0x3bf9b088	0.007619921
197	0xbe0539e9	-0.13010372
198	0xbddd529d	-0.10806773
199	0x3d2e7682	0.042593487
200	0x3c3289f1	0.010897146
201	0xbda3ec01	-0.080039985
202	0x3ce0744f	0.02739921
203	0x3db65ee7	0.0890482
204	0xbd8bcbdc	-0.068259925
205	0xbd811e19	-0.06304569
206	0x3cffa98a	0.031208772
207	0x3d311686	0.04323437
208	0x3d7a3e0a	0.06109432
209	0x3df689f7	0.120380335
210	0xbc41a7e1	-0.011819811
211	0x3d7083c0	0.058719397
212	0xbdd055d8	-0.101726234
213	0xbcb8b37c	-0.022546522
214	0x3e0614db	0.13093893
215	0xbe2f5e86	-0.17125902
216	0xbdee290c	-0.11628923
217	0xbe1c7a5c	-0.15281051
218	0x3e169b7a	0.14707747
219	0xbca389e4	-0.019963212
220	0x3e25cb4a	0.1619083
221	0xbdc322ad	-0.09528098
222	0xbd44f204	-0.048082367
223	0x3de8fbbe	0.11376141
224	0xbe344a82	-0.17606547
225	0xbe306a4b	-0.17228048
226	0xbdf27115	-0.11837975
227	0x3b45cf2b	0.0030183296
228	0xbe268890	-0.16263032
229	0x3d061107	0.032731082
230	0x3e191811	0.14950587
231	0xbd12c527	-0.03583255
232	0xbcfef99e	-0.031124886
233	0xbe1f4e85	-0.15557297
234	0xbd19117a	-0.037370183
235	0x3c6fb1c4	0.014629785
236	0x3d143ae3	0.03618897
237	0xbd6e6f12	-0.058211394
238	0xbddd3dfa	-0.10802837
239	0xbdbdac0e	-0.092613325
240	0x3df9a1e9	0.12189085
241	0xbdc4f3e7	-0.09616833
242	0x3c613501	0.013745547
243	0xbcfe7668	-0.03106232
244	0xbd9192b8	-0.071080625
245	0xbbfa21f5	-0.0076334425
246	0x3e08d45a	0.13362256
247	0x3e091297	0.13385998
248	0xbd173cd6	-0.036923252
249	0xbd11a1b0	-0.035554588
250	0xbdcacb4a	-0.099020556
251	0xbda8654a	-0.08222444
252	0xbcf75a89	-0.030194538
253	0x3e06534e	0.13117716
254	0x3cce4d81	0.025183441
255	0xbe1aee52	-0.15129974

encoder.3.bias f4 [16]
0	0xbd22fc64	-0.03979148
1	0x3cc7b493	0.024378097
2	0xbd7c8b05	-0.061656017
3	0x3e12f748	0.14352143
4	0x3e18ea62	0.1493316
5	0xbd5e0153	-0.05420048
6	0x3d9fc5fc	0.078014344
7	0xbd4494d5	-0.0479935
8	0x3e10cf0c	0.14141482
9	0xbe22d1b5	-0.1590031
10	0x3cce0e22	0.025153223
11	0xbc5ed08a	-0.013599524
12	0x3df72d83	0.120692275
13	0x3c9a8df3	0.018866515
14	0x3d097539	0.033559058
15	0xbe31352a	-0.17305437

encoder.6.weight f4 [32, 16, 2, 2]
0	0xbd8cfe11	-0.06884397
1	0x3deed955	0.116625465
2	0xbc397a89	-0.011320719
3	0x3d5a4ed8	0.053297848
4	0xbdd14c68	-0.102196515
5	0x3d83cdc0	0.06435728
6	0xbd5ec2da	-0.054385044
7	0xbc522623	-0.012826475
8	0x3df138be	0.11778401
9	0x3db55879	0.088547654
10	0xbde0775b	-0.10960265
11	0xbd65ae4f	-0.056074437
12	0x3d971182	0.07376386
13	0xbcbc134a	-0.022958416
14	0x3dca24ca	0.09870298
15	0x3d525f46	0.05136039
16	0xbc644be9	-0.013934114
17	0xbd9fbe79	-0.07800002
18	0x3be65569	0.0070292247
19	0x3dc9a8f3	0.09846678
20	0x3dc4b684	0.096051246
21	0xbd5cfca4	-0.053951874
22	0xbd0d7bfc	-0.03454207
23	0x3d251bbf	0.040309664
24	0xbdd997c9	-0.10624654
25	0x3c88d526	0.0167032
26	0x3d02cd7e	0.031934254
27	0x3dfb3dc3	0.122676395
28	0xbc7d9206	-0.015476709
29	0x3df910cd	0.121614076
30	0x3df8fce3	0.12157609
31	0xbd83bb82	-0.06432249
32	0x3c9ec3a8	0.019380406
33	0x3d92a07f	0.071595185
34	0xbc6e18e6	-0.014532303
35	0xbd8c4130	-0.06848371
36	0x3cda704a	0.026664872
37	0x3d61af39	0.055098746
38	0xbdcf7ad1	-0.10130847
39	0xbdce535a	-0.10074492
40	0xbdc12c35	-0.0943226
41	0xbdc42a5d	-0.09578393
42	0x3de02b3c	0.10945746
43	0xbd63af6d	-0.05558722
44	0xbc733360	-0.014843792
45	0xbd08402e	-0.03326433
46	0xbd839a14	-0.064258724
47	0x3dd89627	0.10575514
48	0xbd36d478	-0.04463622
49	0x3d9b72a9	0.07590229
50	0xbd6c9f5f	-0.057769176
51	0x3dfb19fa	0.12260814
52	0x3d01659e	0.03159105
53	0xbcb4bb22	-0.022061888
54	0x3a69b475	0.0008915135
55	0x3d5427b1	0.051795665
56	0xbd897db8	-0.06713432
57	0xbd17d778	-0.03707072
58	0xbdbdfb62	-0.09276463
59	0xbdabb45f	-0.083840124
60	0x3d762e75	0.0601029
61	0xbc2be9da	-0.010492766
62	0xbd7f9ee8	-0.062407404
63	0x3bbd98b1	0.0057860245
64	0x3d921bd4	0.07134214
65	0x3deb2800	0.11482239
66	0xbd95a2b1	-0.073064215
67	0x3d513ebc	0.05108522
68	0x3c43b8bf	0.011945902
69	0xbd81ec60	-0.06343913
70	0x3ce2f5a6	0.027705025
71	0x3c6619f5	0.014044275
72	0x3d974aeb	0.07387336
73	0x3dd17a3f	0.10228395
74	0x3d707a4d	0.058710385
75	0x3cc1be17	0.023650212
76	0xbdc06155	-0.093935646
77	0xbdd667f1	-0.10469044
78	0x3d6fe2bb	0.058565836
79	0xbd9d0b35	-0.07668153
80	0x3ae1ae4b	0.0017218081
81	0x3dc50f77	0.0962209
82	0x3d80cd00	0.06289101
83	0xbc80e786	-0.015735399
84	0x3ca1529d	0.019692713
85	0x3b8cab22	0.0042928616
86	0x3c31226e	0.010811431
87	0x3ddf4d37	0.109033994
88	0xbd9ca013	-0.07647719
89	0x3dded607	0.10880666
90	0x3bc4acf3	0.0060020625
91	0x3df2cbd3	0.11855283
92	0xbd5a4bed	-0.053295065
93	0x3d9d5fae	0.07684265
94	0xbd8cbfb0	-0.06872499
95	0xbdd1c0be	-0.10241841
96	0x3dba3885	0.090928115
97	0x3d3137a3	0.04326595
98	0x3dfba077	0.122864656
99	0x3d4f5cea	0.05062572
100	0xbd5846e3	-0.052801978
101	0xbd986b24	-0.074423105
102	0x3dd19096	0.10232656
103	0xbccaf629	-0.024775581
104	0xbd9820fb	-0.074281655
105	0xbdbd20c8	-0.09234768
106	0xbdab7050	-0.08371031
107	0xbd574374	-0.052554563
108	0xbdcdd2e6	-0.10049991
109	0x3df66429	0.12030823
110	0x3c6c8b9a	0.0144375805
111	0x3d28e83a	0.041237094
112	0xbd7bdd09	-0.061490092
113	0x3b673917	0.003528183
114	0x3dae80f1	0.08520687
115	0xbd2d830a	-0.042361297
116	0x3dceac3f	0.10091447
117	0xbd1f3115	-0.038865168
118	0xbd3f90ce	-0.046768956
119	0xbdbc767a	-0.09202285
120	0xbdfdb8d1	-0.123887666
121	0x3d5f305c	0.05448948
122	0xbda525c8	-0.08063847
123	0xbd8c5844	-0.06852773
124	0xbd517412	-0.051136084
125	0xbdc3c668	-0.09559327
126	0xbdc4d45d	-0.096108176
127	0xbda73113	-0.08163657
128	0x3df9b0b4	0.121919066
129	0x3beed7fe	0.007288932
130	0xbd40a903	-0.047036182
131	0xbc29fdfe	-0.010375498
132	0x3dd600f9	0.10449404
133	0xbd94e7bc	-0.07270762
134	0x3d4ec4ec	0.050480768
135	0xbcbec98e	-0.023289468
136	0xbdd98133	-0.10620346
137	0x3da95204	0.08267596
138	0x3d6c8780	0.05774641
139	0x3dbc26a5	0.09187058
140	0x3d6a5856	0.05721315
141	0x3ca6a90f	0.020344285
142	0x3d1d6b4c	0.038432404
143	0xbdbf1df6	-0.093318865
144	0x3df6bacb	0.12047347
145	0xbda4de1b	-0.08050176
146	0x3db4e0c6	0.08831935
147	0xbda1d7fc	-0.07902524
148	0xbdb900a2	-0.09033324
149	0x3d52fd75	0.051511247
150	0x3da7c785	0.08192352
151	0xbd0b63a3	-0.034030568
152	0x3d0f65ce	0.035009198
153	0xbddf24de	-0.10895704
154	0xbc65f180	-0.014034629
155	0x3de1dd9d	0.110285975
156	0x3def349e	0.11679958
157	0xbd230829	-0.039802704
158	0x3d3d292c	0.046181843
159	0x3dec18e6	0.115281865
160	0x3d3e303a	0.04643271
161	0x3cbc323e	0.022973176
162	0xbdce57b4	-0.10075322
163	0x3d12f98f	0.03588253
164	0x3d0881e4	0.033327
165	0xbd904b24	-0.07045582
166	0x3d7fba46	0.062433504
167	0xbda6f6ea	-0.08152564
168	0x3df50f28	0.119657815
169	0xbbce7f99	-0.006301832
170	0x3dae4049	0.08508355
171	0xbd0693ef	-0.032855924
172	0xbd820af9	-0.06349749
173	0x3dba3cf2	0.09093656
174	0x3d9b697f	0.07588481
175	0x3dfb557e	0.12272166
176	0x3d16858e	0.03674846
177	0xbd56f269	-0.052477274
178	0xbd9654e4	-0.0734041
179	0xbdf44762	-0.11927678
180	0x3c01c304	0.0079200305
181	0x3df50f4d	0.11965809
182	0xbd29d255	-0.041460354
183	0xbcc5cae9	-0.024144607
184	0x3db44f5e	0.088042006
185	0x3de3b73b	0.11118933
186	0x3d0b14d8	0.033955425
187	0x3c22a438	0.009926848
188	0x3dfa60f3	0.12225523
189	0x3dd66f09	0.10470397
190	0xbda2e306	-0.079534575
191	0xbdb2a49d	-0.08722804
192	0xbceb5b62	-0.028730098
193	0x3d4ab2cf	0.04948693
194	0xbd9cda1e	-0.0765879
195	0xbd5bcc50	-0.053661644
196	0x3c2a042a	0.010376969
197	0xbd015bfa	-0.031581856
198	0x3dabbddd	0.08385823
199	0x3da22801	0.079177864
200	0x3db04cef	0.08608424
201	0x3d8829eb	0.0664862
202	0xbd941b4a	-0.072317675
203	0xbdc5080a	-0.09620674
204	0xbdac04d5	-0.08399359
205	0xbc830a46	-0.01599611
206	0x3dc93a55	0.09825579
207	0xbce356b2	-0.0277513
208	0x3deb749c	0.11496851
209	0x3dbef077	0.09323209
210	0xbdf32d9c	-0.11873934
211	0x3d6bf122	0.05760301
212	0xbd57ff8a	-0.052733935
213	0xbdf43b1d	-0.119253375
214	0x3d337738	0.043814868
215	0xbd2fdf88	-0.042937785
216	0xbde372cb	-0.111058794
217	0xbdb427cd	-0.08796654
218	0x3dbc5a29	0.09196884
219	0xbcf55600	-0.029948235
220	0x3dc8a683	0.097973846
221	0xbd31ad7b	-0.043378334
222	0x3dfa14a0	0.12210965
223	0xbd002964	-0.031289473
224	0x3df240cd	0.11828766
225	0x3d467c68	0.048458487
226	0xbdc065fb	-0.09394451
227	0x3d5f85f6	0.054571114
228	0x3d56ff14	0.052489355
229	0xbdd6e5f2	-0.10493077
230	0xbddd5e2f	-0.1080898
231	0x3bec845a	0.007217926
232	0x3d8ab133	0.06772079
233	0x3dda293c	0.10652396
234	0xbd0def4b	-0.034652036
235	0xbdefbdba	-0.11706109
236	0x3d69e0c2	0.05709911
237	0x3c0ecd63	0.00871596
238	0x3b50dffd	0.0031871789
239	0x3da19ec9	0.07891614
240	0x3c748cd1	0.014926151
241	0x3ddde8d4	0.10835424
242	0x3dc4853c	0.09595725
243	0x3d0318ff	0.03200626
244	0x3dbeb381	0.093115814
245	0x3d23f228	0.04002586
246	0xbdf2f119	-0.11862392
247	0x3de5c9e3	0.112201475
248	0x3b795f13	0.0038051053
249	0xbc7d003d	-0.015441951
250	0x3dd2f508	0.10300642
251	0x3ddf4482	0.10901739
252	0xbdca913c	-0.098909825
253	0x3d49ad01	0.049237255
254	0xbd8cc2ac	-0.06873068
255	0xbd03bb15	-0.032160837

encoder.6.bias f4 [32]
0	0xbcb05961	-0.021526994
1	0x3d415785	0.047202606
2	0xbb26b2dc	-0.0025436198
3	0xbc210619	-0.009828114
4	0xbadc5639	-0.0016810364
5	0x3dac291d	0.08406279
6	0xbdb44b82	-0.088034645
7	0xbde5eff6	-0.112274095
8	0xbdf69cae	-0.12041603
9	0x3d5052e7	0.05086031
10	0xbd8e9738	-0.069624364
11	0xbd5ff019	-0.054672334
12	0xbc87b6be	-0.01656663
13	0x3d96115c	0.0732753
14	0x3a8eff65	0.0010909854
15	0x3cc89188	0.024483457
16	0xbd0fc9d5	-0.03510459
17	0x3d8b63c1	0.06806136
18	0xbd7f71e0	-0.06236446
19	0x3dc5608c	0.096375555
20	0x3dd2b94e	0.1028925
21	0xbde64303	-0.1124325
22	0xbd2221b7	-0.039582934
23	0xbc76ec32	-0.015070962
24	0xbd89d780	-0.067305565
25	0x3bdbbf53	0.0067061572
26	0xbd2813a2	-0.04103435
27	0x3dd3f790	0.10349953
28	0xbc222d1f	-0.009898453
29	0xbd8f2d15	-0.069910206
30	0xbd7e35cb	-0.06206302
31	0xbdef3639	-0.11680264

decoder.0.weight f4 [32, 16, 3, 3]
0	0xbd51e35d	-0.05124222
1	0x3c849bf9	0.016187655
2	0x3ccec005	0.025238046
3	0xbd132a1e	-0.035928838
4	0x3a580229	0.0008240068
5	0x3d2b16ef	0.041769918
6	0x3c33d347	0.010975665
7	0x3c19873c	0.009370621
8	0xbd5ff481	-0.054676536
9	0x3da02913	0.07820334
10	0xbccb15e0	-0.024790704
11	0x3bdee576	0.006802256
12	0xbc2893de	-0.010289161
13	0x3d1440fa	0.03619478
14	0xbd8d5eac	-0.06902823
15	0x3c99e37f	0.018785236
16	0xbd8478e8	-0.064683735
17	0x3d86b5b3	0.06577625
18	0xbd064bc0	-0.032787085
19	0x3c8bc7dc	0.017063074
20	0x3bb53965	0.0055305236
21	0xbd070595	-0.032964308
22	0xbc33c7cf	-0.010972931
23	0x3da27db3	0.079341315
24	0xbd2c5ae4	-0.042078868
25	0xbcb21ebd	-0.021743173
26	0x3d60d73a	0.054892756
27	0x3d487b31	0.04894561
28	0x3cbceaed	0.02306124
29	0xbd955973	-0.07292452
30	0xbc5c30b5	-0.013439347
31	0xbda81d97	-0.08208769
32	0xbd28a229	-0.041170273
33	0xbc0fe968	-0.008783676
34	0xbd010972	-0.03150315
35	0x3d0c2886	0.034218334
36	0x3a528578	0.00080307527
37	0x3c860ac8	0.016362563
38	0x3cc7fc96	0.024412435
39	0x3ca62875	0.020282963
40	0xbda745ca	-0.08167608
41	0x3c89cb5c	0.016820602
42	0x3d8c6da6	0.06856851
43	0x3ce66478	0.02812408
44	0x3d748f07	0.059706714
45	0xbd389287	-0.045061614
46	0xbcacb5ea	-0.021082837
47	0xbd9b8bdb	-0.07595035
48	0xbd9b7ad2	-0.075917855
49	0xbd805fe5	-0.062682904
50	0x3d2e7bfd	0.042598713
51	0xbd491e66	-0.049101256
52	0x3ce52da4	0.027975865
53	0x3d6d3946	0.05791595
54	0x3cf2372e	0.029567327
55	0xbd0ef0a9	-0.03489748
56	0x3d59ddaa	0.05318991
57	0x3cfb8fbe	0.03070819
58	0x3c9b16fa	0.018931855
59	0xbcab6bda	-0.020925451
60	0x3d879d7e	0.06621836
61	0x3d25749d	0.040394414
62	0xbc6e51e2	-0.01454589
63	0x3d1d6f7e	0.038436405
64	0xbd636ceb	-0.055523794
65	0xbbec7550	-0.007216133
66	0xbd8db30c	-0.06918916
67	0xbd984c88	-0.07436472
68	0x3d8b03f1	0.06787861
69	0x3d356ef7	0.044295277
70	0xbce7a624	-0.028277464
71	0xbd3df367	-0.046374705
72	0xbd026212	-0.03183181
73	0xbca2a79f	-0.019855319
74	0xbc6aa24a	-0.014320919
75	0x3d922607	0.071361594
76	0x3da36001	0.07977296
77	0x3d323bca	0.04351405
78	0xbd3f23c3	-0.046664964
79	0xbcf0fe37	-0.029418094
80	0x3c28024b	0.010254453
81	0xbd4b4c16	-0.049633108
82	0x3d98af11	0.07455266
83	0xbd4a48b4	-0.04938574
84	0x3d9df6c6	0.07713084
85	0xb9bebaa8	-0.00036378694
86	0x3d9ae92c	0.07564005
87	0x3d5f15a2	0.05446399
88	0x3bf57873	0.0074911653
89	0x3da79b11	0.081838734
90	0x3bee9130	0.0072804913
91	0x3d0304d2	0.03198702
92	0xbcafffb4	-0.021484233
93	0xbd960c85	-0.07326607
94	0xbd514cb1	-0.05109853
95	0xbd89586b	-0.067063175
96	0x3d6a2a27	0.057169106
97	0x3d17c870	0.037056386
98	0x3cc04ae0	0.023473203
99	0x3d9e4f96	0.077300236
100	0xbd70e808	-0.058815032
101	0x3cc0112c	0.023445688
102	0x3b6b9e91	0.0035952667
103	0xbd956172	-0.07293977
104	0xbda4dc70	-0.080498576
105	0x3da5eb3e	0.081015095
106	0x3d9115b6	0.07084219
107	0x3c780d8d	0.0151399495
108	0xbd5b23d2	-0.053500958
109	0x3c3d40d3	0.0115511
110	0x3d72cfc8	0.059280187
111	0xbc95b7d5	-0.018276135
112	0x3a9159fc	0.001108944
113	0xbd27e3a3	-0.040988576
114	0x3d80d42a	0.06290467
115	0xbd500bf0	-0.050792634
116	0xbd3fbcfe	-0.046811096
117	0xbcaf23f7	-0.021379454
118	0xbb275683	-0.0025533743
119	0x3cad16f2	0.021129105
120	0x3d849ad9	0.06474847
121	0x3d509517	0.050923433
122	0x3c464085	0.012100344
123	0x3cb21d39	0.02174245
124	0x3d906d77	0.07052129
125	0xbcc83060	-0.02443713
126	0xbd227f06	-0.03967192
127	0x3d82bf2f	0.063841216
128	0x3d94112d	0.072298385
129	0xbb5fb080	-0.0034132302
130	0xbb5385cf	-0.00322758
131	0x3d81982d	0.06327853
132	0xbc7cae51	-0.01542242
133	0x3da8a5fc	0.08234784
134	0xbd7a1bf7	-0.061061826
135	0x3ca7f5ee	0.02050301
136	0x3d818272	0.063237086
137	0xbda42cb2	-0.080163375
138	0xbcb448ff	-0.022007463
139	0x3d911d1b	0.070856296
140	0x3d764f42	0.06013418
141	0xbd636372	-0.05551476
142	0x3d88afe6	0.06674175
143	0x3d923cb2	0.07140483
144	0x3d061604	0.03273584
145	0xbcac95a7	-0.021067454
146	0xbd43b4d0	-0.047779858
147	0xbc8d1cf1	-0.017225714
148	0x3cd68ecd	0.02619114
149	0x3c903a47	0.017605914
150	0x3c3adf86	0.011405831
151	0xbd720527	-0.059086945
152	0x3d8a5576	0.06754582
153	0x3c1dc507	0.0096294945
154	0x3c8a7eb3	0.016906118
155	0xbd8e2600	-0.06940842
156	0xbcc0a707	-0.023517145
157	0xbca4f309	-0.02013542
158	0x3d6bd3cf	0.057575043
159	0x3d8730f4	0.06601134
160	0xbd549ebe	-0.0519092
161	0xbd687cb4	-0.05675955
162	0xbd49d5a2	-0.049276
163	0xbcbea49e	-0.023271855
164	0xbd82ea62	-0.06392361
165	0x3d9e0e37	0.07717555
166	0xbd62985d	-0.055321086
167	0x3d8cd6d4	0.06876913
168	0x3d0ad50e	0.03389459
169	0xbcfb181f	-0.03065115
170	0xbd284132	-0.0410778
171	0x3c0985f9	0.008393758
172	0xbda74930	-0.08168256
173	0xbd116f97	-0.03550681
174	0x3c33ba63	0.010969731
175	0xbda48e92	-0.08035006
176	0x3d9fb292	0.077977315
177	0xbd4a2334	-0.04934998
178	0xbb11962e	-0.0022214758
179	0xbd2b4c5a	-0.04182086
180	0xbd0f25e9	-0.034948263
181	0xbd08dfa7	-0.033416416
182	0x3c877244	0.016533978
183	0xbd513eae	-0.051085167
184	0x3d0cd662	0.03438414
185	0x3d02c024	0.03192152
186	0x3d3cd3ca	0.046100415
187	0xbd9eba37	-0.077503614
188	0xbd4a400f	-0.049377497
189	0x3d4dce57	0.05024561
190	0x3d88b52c	0.06675181
191	0x3d005a56	0.03133615
192	0xbd933eec	-0.07189736
193	0x3ca89041	0.020576598
194	0x3d66a99d	0.0563141
195	0xbb7f1fbe	-0.0038928832
196	0x3d502387	0.05081513
197	0xbd6ff4cc	-0.058583066
198	0x3d4a0ea7	0.04933038
199	0x3c87f857	0.01659791
200	0xbcf20b4d	-0.029546404
201	0x3d897985	0.06712631
202	0xbd9abc60	-0.07555461
203	0x3d927976	0.07152073
204	0x3c9b3d31	0.018950077
205	0x3cbc3890	0.02297619
206	0xbc145d87	-0.009055502
207	0x3c2f314e	0.0106929075
208	0x3d706a44	0.058695093
209	0x3c23dfa8	0.010002054
210	0x3c1fa650	0.009744242
211	0x3d289788	0.041160136
212	0xbd1bce6b	-0.038038652
213	0xbc98254d	-0.018572474
214	0x3d052945	0.03251006
215	0x3d97eaf5	0.07417861
216	0xbc77cd91	-0.015124694
217	0x3b0b43ca	0.0021250122
218	0x3d0ee5bb	0.034887057
219	0xbd5b6d18	-0.053570837
220	0xbd889211	-0.06668485
221	0x3b9dbf50	0.004814066
222	0x3c731bb3	0.014838147
223	0xbd83d7e4	-0.06437662
224	0x3da5ccaf	0.08095681
225	0x3ced65db	0.028979233
226	0xbd4f7a8b	-0.050653975
227	0x3d83a082	0.06427099
228	0x3cbfd84f	0.023418574
229	0x3bd26b99	0.006421518
230	0x3c00c73d	0.007860002
231	0xbd63f666	-0.055654906
232	0xbbdbcc9a	-0.00670774
233	0x3d84b08c	0.06478986
234	0xbd2a0f33	-0.0415184
235	0x3d1e32b2	0.038622566
236	0x3d58c0f8	0.052918404
237	0x3da8e4df	0.08246779
238	0xbd891324	-0.06693104
239	0x3cbafdad	0.02282604
240	0x3ce14fd1	0.02750388
241	0xbce6ef37	-0.028190238
242	0x3d492775	0.049109895
243	0x3d044e4b	0.03230123
244	0x3d9123bc	0.07086894
245	0xbd73fd1d	-0.05956756
246	0x3cb8e81e	0.02257162
247	0xbd770fb0	-0.060317695
248	0x3cb51fc4	0.022109874
249	0x3d5a960e	0.05336576
250	0xbd915b08	-0.07097441
251	0x3d843a68	0.064564526
252	0x3d4388f2	0.047738023
253	0xbbfc0455	-0.007690946
254	0x3d9d5760	0.07682681
255	0x3974847d	0.00023319009

decoder.0.bias f4 [16]
0	0x3d4c4193	0.049867224
1	0x3c403869	0.011732199
2	0x3cf9694c	0.030445717
3	0x3d9bb712	0.07603277
4	0xbc2759e3	-0.010214302
5	0xbc0a70d6	-0.008449754
6	0xbd9318cc	-0.07182464
7	0xbd96f1da	-0.07370348
8	0xbd4058df	-0.046959754
9	0xbd523db3	-0.051328372
10	0x3d839da2	0.064265504
11	0xbd0badd4	-0.034101322
12	0xbc6c176c	-0.014409881
13	0x3d79723a	0.06089995
14	0xbd1e6f33	-0.038680267
15	0x3b8bb957	0.0042640376

decoder.2.weight f4 [16, 16, 2, 3]
0	0xbdb6d477	-0.08927243
1	0x3d9a5f34	0.0753769
2	0xbdcd9bc4	-0.100394756
3	0x3d7d58d1	0.06185228
4	0xbc0b653f	-0.008508026
5	0xbd33af3c	-0.04386829
6	0xbcb4a39f	-0.022050677
7	0xbda13d49	-0.07873017
8	0xbd07fcc5	-0.033200044
9	0x3d9293e8	0.07157117
10	0x3daaee4b	0.08346232
11	0x3d72a563	0.059239756
12	0xbd184e33	-0.03718395
13	0xbcce5a87	-0.025189651
14	0x3d22cea5	0.039747853
15	0xbdc91ff4	-0.09820548
16	0xbdbaf2fb	-0.09128376
17	0xbdc54803	-0.09632876
18	0x3dc95d83	0.09832289
19	0x3d3840e1	0.04498375
20	0xbd4c6b84	-0.049907222
21	0xbce38bcb	-0.02777662
22	0x3c95eee3	0.018302387
23	0x3d015079	0.031570885
24	0x3c7cf468	0.01543913
25	0x3d39476f	0.04523414
26	0x3c8133c1	0.015771748
27	0xbcec65b9	-0.028857099
28	0x3cf00556	0.02929942
29	0x3d818503	0.06324198
30	0xbc5ac690	-0.013353005
31	0x3cd068cb	0.025440594
32	0xbdd04b7d	-0.10170648
33	0xbdbce875	-0.09224025
34	0xbdc3f5c8	-0.095683634
35	0x3d0736da	0.033011295
36	0xbd7be920	-0.061501622
37	0x3d3bd1e8	0.04585448
38	0x3bbeaee2	0.0058191875
39	0x3d137eb8	0.03600952
40	0xbdae428f	-0.08508789
41	0x3db741a6	0.08948068
42	0xbdb749f3	-0.089496516
43	0xbd01b6cb	-0.031668466
44	0xbc22e3fb	-0.00994205
45	0x3ca1d618	0.019755408
46	0xbc715cc3	-0.014731589
47	0xbdcd8186	-0.1003447
48	0xbd837f41	-0.06420756
49	0xbd675787	-0.056479957
50	0x3dcf0ad1	0.10109485
51	0x3ce04bf5	0.02737997
52	0x3d84f5d8	0.064922035
53	0xbd2ec838	-0.042671412
54	0x3d7dcf18	0.061965078
55	0xbd352d27	-0.044232514
56	0x3cf3f0de	0.02977794
57	0x3d20149c	0.039082155
58	0x3dca9e11	0.0989343
59	0x3ce7dfe4	0.028305002
60	0xbbefaadd	-0.0073140697
61	0x3dabccfa	0.083887056
62	0x3d9019fd	0.07036207
63	0xbd8c2fc7	-0.0684505
64	0xbd356675	-0.044287164
65	0x3d8f7591	0.07004846
66	0xbd0c6cb7	-0.034283366
67	0xbd2e7d63	-0.042600047
68	0xbc6c4cbb	-0.014422591
69	0x3d7c5612	0.06160552
70	0xbdb3a5fa	-0.08771892
71	0x3d6fa211	0.058504168
72	0x3c194128	0.009353913
73	0x3d44740f	0.047962245
74	0xbd9e321e	-0.07724403
75	0xbc20310e	-0.009777321
76	0x3da81bdd	0.082084395
77	0xbd3bb590	-0.04582745
78	0x3c0f74e0	0.0087558925
79	0x3c21047c	0.009827729
80	0xbd6ad859	-0.05733523
81	0x3dc82b51	0.09773887
82	0xbdca4f47	-0.09878402
83	0x3c394d26	0.0113098975
84	0xbca21396	-0.01978473
85	0x3dbad8f2	0.0912341
86	0x3d786933	0.0606472
87	0xbda96b23	-0.08272388
88	0xbc3b6d89	-0.011439689
89	0x3dbc8af1	0.092061885
90	0x3c1a9ee9	0.009437301
91	0x3d4d6482	0.05014468
92	0xbdaa5783	-0.08317473
93	0xbce04a15	-0.027379075
94	0xbdcc88e1	-0.09987045
95	0xbd96dcff	-0.073663704
96	0xbd9506dc	-0.07276699
97	0xbc8cdd59	-0.01719539
98	0x3c59e71a	0.013299728
99	0xbdcbd113	-0.09951987
100	0xbd126c5c	-0.03574787
101	0xb98740f5	-0.00025797603
102	0x3dd02d33	0.10164871
103	0xbcee408c	-0.029083513
104	0xbd892042	-0.06695606
105	0x3c8e7a8e	0.017392423
106	0x3c1070eb	0.008815984
107	0x3a534e60	0.000806069
108	0xbcb43018	-0.02199559
109	0xbbc4176a	-0.0059842365
110	0x3da1be13	0.07897582
111	0xbda3d3cc	-0.079993814
112	0x3d2cfb4e	0.04223185
113	0xbd340853	-0.04395325
114	0x3cf2a385	0.029618988
115	0xbd5b7c11	-0.053585116
116	0xbda33dd3	-0.079707764
117	0x3d2fdb3f	0.0429337
118	0x3cea1a11	0.028576883
119	0x3d4ce604	0.050024047
120	0xbd17965b	-0.037008625
121	0x3ca324ca	0.019915003
122	0x3d960f50	0.073271394
123	0x3d9d3e3b	0.07677885
124	0x3d8754fe	0.06608008
125	0xbcab2c52	-0.020895157
126	0xbd5789f0	-0.05262178
127	0x3c0d2d15	0.008616705
128	0xbd8c2702	-0.06843378
129	0xbcf49ef8	-0.029860958
130	0x3c54a5eb	0.012979011
131	0x3d14671f	0.036231156
132	0xbc2dde38	-0.010612063
133	0x3d1f96b1	0.03896207
134	0xbdb28062	-0.08715893
135	0x3d1eea10	0.03879744
136	0xbd88a213	-0.06671538
137	0xbdaaf093	-0.08346667
138	0x3c2d9dde	0.0105967205
139	0x3db81869	0.08989031
140	0x3c7254ff	0.014790772
141	0x3d14d8e0	0.03633964
142	0xbc5f4c36	-0.01362901
143	0x3bb3e25b	0.00548963
144	0x3c34bb46	0.011030978
145	0xbd392bc4	-0.045207754
146	0x3da95c70	0.08269584
147	0xbd826d46	-0.063684985
148	0x3d578149	0.05261353
149	0x3d8cc62b	0.06873735
150	0xbd5b77f0	-0.05358118
151	0x3db41ff1	0.08795155
152	0x3d28b83f	0.041191336
153	0x3db6111a	0.088899806
154	0x3d27375d	0.040824283
155	0xbd75bae2	-0.05999268
156	0x3d8031c7	0.06259494
157	0x3da8e003	0.08245852
158	0x3d801f9f	0.06256031
159	0x3d162414	0.0366555
160	0x3c8cc003	0.017181402
161	0x3be3a483	0.0069471016
162	0x3dcda7d1	0.10041774
163	0xbd4b976b	-0.04970495
164	0x3cbc4d6d	0.022986138
165	0xbb1c506b	-0.0023851644
166	0x3dbcb4f9	0.09214205
167	0x3d6e9325	0.058245797
168	0xbd815b70	-0.063162684
169	0x3d3e243c	0.046421275
170	0xbd07ba2c	-0.03313653
171	0x3d919087	0.071076445
172	0xbdb0335a	-0.086035445
173	0xbdbcc521	-0.09217287
174	0x3d3a3bc2	0.045467146
175	0xbce8b75b	-0.028407743
176	0x3cd7c7b3	0.026340341
177	0x3dad14d0	0.08451235
178	0xbd9121e7	-0.070865445
179	0xbc52ed32	-0.012873935
180	0xbd146844	-0.036232248
181	0x3d61b93a	0.055108286
182	0xbd1e9aee	-0.03872197
183	0x3db07af9	0.08617205
184	0x3b5e43e8	0.0033914987
185	0x3cf1cb07	0.029515756
186	0xbd4ebf88	-0.050475627
187	0xbb8043ea	-0.003914346
188	0xbdbb51e3	-0.09146478
189	0xbd3ab7bb	-0.045585375
190	0xbcef27a7	-0.029193712
191	0xbdaf3983	-0.08555891
192	0xbace4b61	-0.0015739017
193	0x3d55bf13	0.052184176
194	0xbd7755ce	-0.060384564
195	0xbbe09dbf	-0.0068547423
196	0x3d9c7e0a	0.076412275
197	0xbd7cde64	-0.061735526
198	0x3cf3eef7	0.029777033
199	0xbcac7774	-0.021053053
200	0x3dae2379	0.085028596
201	0xbc104d8e	-0.008807553
202	0x3dad4727	0.08460837
203	0xbd08c2f3	-0.033389043
204	0xbda20460	-0.07910991
205	0x3b4bd995	0.003110503
206	0xbd78509f	-0.06062376
207	0xbd6356de	-0.055502765
208	0x3d933f7c	0.07189843
209	0x3dc157dd	0.09440587
210	0xbd893e04	-0.06701282
211	0xbdcff190	-0.10153496
212	0x3cfdbcf7	0.030973895
213	0xbdafcddb	-0.08584186
214	0xbcee9210	-0.029122382
215	0x3d2da26d	0.04239123
216	0x3d13e6c3	0.036108743
217	0x3c72fcc6	0.014830774
218	0x3d36e655	0.044653255
219	0xbd6a846c	-0.057255194
220	0xbd07035e	-0.032962196
221	0xbd09150b	-0.033467334
222	0xbdd05a30	-0.10173452
223	0xbd6ea96f	-0.058267053
224	0x3c5d7d7d	0.013518688
225	0x3cdd966e	0.02704927
226	0xbd35c29d	-0.04437505
227	0x3d912c2d	0.07088504
228	0xbd64a847	-0.055824544
229	0x3bbcb792	0.005759188
230	0x3db4f7f1	0.088363536
231	0x3d8a7e71	0.06762398
232	0x3dc5b1c4	0.09653047
233	0x3ce9e2b4	0.028550483
234	0xbd90561a	-0.070476726
235	0xbd0e235f	-0.0347017
236	0xbcef615e	-0.029221233
237	0xbd9a5cae	-0.075372085
238	0xbd1c3f62	-0.038146384
239	0xbdc3cae2	-0.09560181
240	0xbd4513a6	-0.04811444
241	0xbdd080ea	-0.101808384
242	0x3dcc4482	0.09974004
243	0x3c83c3f3	0.016084647
244	0x3dc71919	0.09721584
245	0x3d6ea3f4	0.058261827
246	0x3dcc803b	0.099853955
247	0xbcfab64f	-0.03060451
248	0xbd45f5fe	-0.0483303
249	0xbd318a48	-0.043344766
250	0xbdbfb4ec	-0.0936068
251	0xbbc7d2f0	-0.0060981438
252	0x3c75f952	0.015013056
253	0x3d6e64a1	0.058201436
254	0xbc9c7756	-0.019099873
255	0x3d07ba50	0.033136666

decoder.2.bias f4 [16]
0	0xbd728b17	-0.059214678
1	0xbb9a97b2	-0.0047177905
2	0x3d22d018	0.039749235
3	0x3d3a9d4b	0.045560163
4	0x3d7f635d	0.06235062
5	0xbdce2181	-0.10064984
6	0xbd43d43f	-0.047809836
7	0x3c934f02	0.01798201
8	0xbd958afe	-0.07301901
9	0xbd67b280	-0.056566715
10	0xbd2376e0	-0.03990829
11	0x3d47222c	0.048616573
12	0x3d34811e	0.04406845
13	0xbd1ff3b7	-0.039050784
14	0xbd5325ea	-0.05154983
15	0x3cb58c16	0.022161525

decoder.4.weight f4 [16, 8, 3, 3]
0	0x3d0d9c45	0.03457286
1	0x3dd796d3	0.10526814
2	0x3dacb01b	0.08432027
3	0xbd03be79	-0.03216407
4	0xbc19f9cb	-0.009397934
5	0x3d82b61e	0.06382392
6	0x3cd759a9	0.02628787
7	0x3d6a5d94	0.05721815
8	0x3dde837e	0.10864924
9	0x3d267aca	0.040644445
10	0xbc035690	-0.008016244
11	0xbdebc580	-0.115122795
12	0xbd5ed88a	-0.054405726
13	0x3d6209ba	0.055185057
14	0x3ddb7ae1	0.10716797
15	0x3d22d0b6	0.039749824
16	0xbda85386	-0.08219056
17	0xbdc2dfc5	-0.09515337
18	0x3de8111f	0.113313906
19	0xbd123432	-0.03569431
20	0xbcf5d630	-0.03000936
21	0xbcc0e454	-0.023546375
22	0x3d8a24df	0.06745314
23	0x3dd86b05	0.10567287
24	0x3d28a13a	0.041169383
25	0x3d9cf749	0.076643534
26	0x3dd317f9	0.10307307
27	0xbde8b493	-0.11362567
28	0xbd407628	-0.046987683
29	0xbd7dcb1f	-0.06196129
30	0x3d749f0e	0.059722
31	0x3dabf017	0.08395403
32	0x3c841234	0.016121961
33	0x3da2d7d9	0.07951326
34	0xbde2750c	-0.11057481
35	0xbcb60178	-0.022217497
36	0x3c541775	0.012945046
37	0xbc2ac29e	-0.010422377
38	0x3db9a712	0.09065069
39	0xbd3f119c	-0.046647653
40	0x3dc5c72b	0.09657129
41	0xbd08eb5b	-0.033427577
42	0x3bd1aa70	0.0063984916
43	0x3ca45b7a	0.02006315
44	0x3dcbde9e	0.0995457
45	0xbcbe9b24	-0.023267336
46	0xbc05af60	-0.008159488
47	0x3dabd629	0.08390457
48	0x3dec6517	0.11542719
49	0xbd866bc0	-0.065635204
50	0x3d07d412	0.03316123
51	0xbb073b80	-0.002063483
52	0xbde3afc7	-0.11117511
53	0xbdcf682a	-0.101272896
54	0xbcf9b5b8	-0.030482158
55	0xbcd897c8	-0.026439562
56	0x3c949044	0.018135197
57	0xbd7325e6	-0.059362315
58	0x3cd8b04f	0.026451258
59	0x3ded18c3	0.115769885
60	0x3c4b22d8	0.012398444
61	0x3d9cb02b	0.07650789
62	0xbd980828	-0.07423431
63	0x3dd41af4	0.103567034
64	0xbcf4113b	-0.029793372
65	0x3dee8af1	0.11647595
66	0xbd2714c6	-0.040791295
67	0x3c76ff51	0.015075521
68	0x3ca78cdb	0.020452907
69	0x3cf40f0d	0.029792333
70	0x3be6585f	0.0070295776
71	0xbcb8d39e	-0.022561844
72	0xbd07367d	-0.03301095
73	0x3dac5ded	0.084163524
74	0x3dda3118	0.10653895
75	0x3de3e97f	0.1112852
76	0xbd86ae61	-0.06576229
77	0x3dc6e207	0.0971108
78	0x3dd13b40	0.10216379
79	0x3d7513c9	0.05983332
80	0xbc23ca82	-0.009997012
81	0xbda4642a	-0.08026917
82	0xbd10e3f6	-0.03537365
83	0xbde5456b	-0.11194881
84	0x3d8c3db7	0.06847709
85	0x3da5e9ae	0.081012115
86	0x3d3ddbeb	0.04635231
87	0xbde9e6d0	-0.11420977
88	0x3d2354af	0.039875682
89	0xbd78a7a3	-0.060706746
90	0xbd52cd3e	-0.051465265
91	0xbdbdf1e8	-0.092746556
92	0x3dccc4e3	0.09998491
93	0x3d81a455	0.06330172
94	0x3dd72f6f	0.10507094
95	0x3ddfbe9d	0.109250285
96	0xbd695d68	-0.056973845
97	0x3db10ef1	0.08645428
98	0x3db8d62b	0.09025224
99	0x3cf7dff4	0.030258156
100	0xbdeb8135	-0.11499254
101	0xbc966cb0	-0.018362373
102	0xbdedb65e	-0.116070494
103	0xbc45d528	-0.012074746
104	0x3dcb4399	0.099250026
105	0xbb5e9a00	-0.0033966303
106	0xbdbd7ebd	-0.09252689
107	0x3de2312d	0.11044536
108	0xbc77909a	-0.015110159
109	0x3d858c47	0.065208964
110	0xbcc6a63a	-0.024249185
111	0xbd9883c5	-0.07447008
112	0x3d1767f1	0.03696436
113	0x3c9d91fa	0.019234646
114	0x3d1a6fa1	0.037704114
115	0xbb93e3c5	-0.004513236
116	0x3dc9b91d	0.09849761
117	0xbdd770f6	-0.105195925
118	0xbdb9c20b	-0.09070214
119	0xbdc8dc6e	-0.098076686
120	0xbd057ef4	-0.032591775
121	0x3cf15634	0.02946005
122	0xbd2f0e9a	-0.042738535
123	0xbcf57860	-0.029964626
124	0xbd6c6744	-0.05771567
125	0xbd3d591a	-0.046227552
126	0xbdd82060	-0.1055305
127	0x3c07fcbf	0.008300005
128	0x3d193eeb	0.03741352
129	0xbd364ce4	-0.044506922
130	0x3bf48a1c	0.007462753
131	0x3dcbe356	0.0995547
132	0x3d9ba7d1	0.07600368
133	0xbde85d1d	-0.11345885
134	0xbdbde765	-0.09272651
135	0x3d4bdf53	0.049773525
136	0xbb9dec69	-0.004819442
137	0x3dc61f18	0.096738994
138	0x3dad50dc	0.08462688
139	0xbdaac401	-0.08338166
140	0xbdcdb5eb	-0.10044464
141	0x3ca1653d	0.019701594
142	0x3d16c627	0.036810067
143	0xbcdbf8c9	-0.026852028
144	0x3d9f3c33	0.07775154
145	0x3de856c9	0.11344678
146	0xbc5a2c6d	-0.013316256
147	0x3d2372a1	0.03990424
148	0xbde1bc64	-0.11022261
149	0xbc62215c	-0.013801899
150	0xbdbdc9a4	-0.092669755
151	0x3dc56da8	0.09640056
152	0x3d15fabf	0.036616083
153	0x3d7d9d9d	0.06191789
154	0xbd3d9f2e	-0.046294384
155	0x3d51c31f	0.051211473
156	0x3d34247b	0.043980103
157	0xbd59a5ff	-0.05313682
158	0xbcaf0e09	-0.021368997
159	0x3d861198	0.065463245
160	0x3ceda092	0.02900723
161	0xbb9bb1a0	-0.004751399
162	0xbb0b6be0	-0.0021274015
163	0xbda696de	-0.081342444
164	0xbc8943f8	-0.016756043
165	0x3c4599b8	0.012060575
166	0x3d462356	0.048373543
167	0xbd3015ce	-0.042989545
168	0x3d2eaf1a	0.04264746
169	0x3c93af5c	0.018027954
170	0x3ddc6213	0.10760894
171	0x3d3ba0a6	0.045807503
172	0xbdee47d2	-0.116347924
173	0xbceb9a2c	-0.028760038
174	0xbc06f440	-0.008236945
175	0xbd536992	-0.05161435
176	0xbd2d7ff8	-0.04235837
177	0x3baf4240	0.005348474
178	0xbb33d280	-0.00274387
179	0xbcfd53f8	-0.030923828
180	0xbd484586	-0.048894428
181	0xbd5a14c4	-0.05324246
182	0x3d21bdae	0.039487533
183	0x3d1a1310	0.037615836
184	0x3cad2c92	0.021139417
185	0x3dac77f1	0.084213145
186	0x3c1f0e28	0.009707965
187	0x3ddf79f2	0.10911931
188	0xbcc89663	-0.024485772
189	0x3a93d980	0.001128003
190	0xbd7b3d3a	-0.061337687
191	0xbdbf4f1a	-0.09341259
192	0xbd4ff766	-0.050773047
193	0x3ce54c24	0.027990408
194	0x3c10ae08	0.008830555
195	0x3d46fd4e	0.048581414
196	0x3d1a70aa	0.0377051
197	0xbdeafeea	-0.11474402
198	0x3dc86b16	0.0978605
199	0xbd0487aa	-0.03235594
200	0xbdbac775	-0.09120075
201	0x3d3c3d10	0.04595667
202	0x3cfd1f19	0.030898618
203	0xbd88519d	-0.066561915
204	0x3ac9e85c	0.0015404331
205	0x3dcb3443	0.099220775
206	0x3d009098	0.031387895
207	0xbd05b02c	-0.032638714
208	0xbce36f85	-0.027763138
209	0x3d1e2c27	0.038616326
210	0x3de6a687	0.11262231
211	0xbd04508a	-0.03230337
212	0x3dd6285a	0.10456915
213	0xbd403e68	-0.046934515
214	0x3daa4479	0.083138414
215	0x3c3ecef6	0.011646023
216	0xbd4bcb04	-0.049754158
217	0x3dc9f287	0.098607115
218	0x3db0b5a3	0.086283945
219	0xbcb76a9d	-0.022389704
220	0xbde5cce9	-0.11220724
221	0xbd774ca8	-0.06037584
222	0xbbdd8f8b	-0.0067614964
223	0xbdcf2f87	-0.10116487
224	0xbdb86a82	-0.0900469
225	0xbc1ca469	-0.009560683
226	0xbced7fde	-0.028991636
227	0x3b7ed2a6	0.003888288
228	0xbd77b98a	-0.06047968
229	0xbd734733	-0.059394073
230	0x3d1cf48f	0.038319167
231	0x3bc05683	0.005869688
232	0x3d9e5d3d	0.077326275
233	0xbd851063	-0.06497266
234	0xbd4e9cbc	-0.050442442
235	0xbd5eb4a2	-0.054371484
236	0xbd9dd488	-0.07706553
237	0x3d83652b	0.06415781
238	0xbc9dd0d0	-0.019264609
239	0x3df00fbb	0.1172175
240	0x3d8acf95	0.067778744
241	0xbd6c24d8	-0.057652324
242	0xbcf2e0ac	-0.029648148
243	0x3d523c22	0.05132688
244	0xbdab442c	-0.08362612
245	0x3dd2689b	0.10273858
246	0x3c9c1724	0.019054003
247	0x3d0a7ca6	0.03381028
248	0x3dcfbb59	0.101431556
249	0xbdcfdf6e	-0.10150038
250	0xbd2a2e1e	-0.041547887
251	0xbd57a536	-0.05264779
252	0xbd9e4490	-0.07727921
253	0x3d9d5125	0.07681493
254	0x3d9db827	0.0770114
255	0x3db69cb6	0.08916609

decoder.4.bias f4 [8]
0	0x3c5cf113	0.013485211
1	0xbd3b64c4	-0.045750394
2	0xbdb620fa	-0.088930085
3	0xbd7c84e9	-0.06165019
4	0x3daaa8e6	0.08332996
5	0xbdf09a3f	-0.1174817
6	0xbcfaded6	-0.030623835
7	0x3ded1e87	0.11578088

decoder.6.weight f4 [8, 8, 3, 3]
0	0xbc4ae276	-0.012383094
1	0x3d1bfb60	0.038081527
2	0x3d236387	0.03988984
3	0x3cbf2fdd	0.023338253
4	0x3dc3405d	0.09533761
5	0x3dd59811	0.10429395
6	0xbcb65ffb	-0.022262564
7	0xbc8229a3	-0.015888995
8	0x3decc2d3	0.11560597
9	0xbdee9069	-0.11648638
10	0xbde251c9	-0.110507555
11	0x3da2f455	0.07956759
12	0xbda16ff8	-0.078826845
13	0x3d18e72c	0.037329838
14	0xbd23f397	-0.040027227
15	0xbdb75524	-0.08951786
16	0x3dd73fd0	0.10510218
17	0x3d290b46	0.041270517
18	0xbd6c9679	-0.05776069
19	0x3c8d809e	0.017273244
20	0xbcc57e9c	-0.024108224
21	0xbd53c72b	-0.051703613
22	0x3d87363b	0.066021405
23	0xbcde7fa0	-0.027160466
24	0xbca3d660	-0.019999683
25	0xbdd3ab43	-0.103354
26	0x3b0e4606	0.0021709218
27	0x3d940204	0.07226947
28	0x3d4f9271	0.050676767
29	0x3d26cfdd	0.040725578
30	0x3d262599	0.0405632
31	0x3dae3b19	0.08507366
32	0xbcbdf038	-0.023185834
33	0xbddf43de	-0.109016165
34	0xbd858a10	-0.06520474
35	0x3ce8b9e8	0.02840896
36	0x3dab075d	0.08351014
37	0x3dbf8337	0.09351199
38	0xbc9fd078	-0.019508585
39	0xbd96ec1a	-0.073692515
40	0x3ddec54b	0.108774744
41	0xbdf06b79	-0.11739249
42	0x3df04251	0.11731399
43	0xbdd0ffb8	-0.102050245
44	0xbcb630a4	-0.02223999
45	0x3d59c24d	0.053163815
46	0x3c955fdb	0.018234184
47	0x3dcc93fc	0.09989163
48	0x3baf4063	0.0053482517
49	0xbde07a89	-0.10960872
50	0x3d8af059	0.06784124
51	0xbcb48f9c	-0.022041135
52	0x3dd55203	0.10416033
53	0x3d990935	0.07472459
54	0x3c1d3be8	0.009596802
55	0x3d71ed76	0.05906435
56	0xbd697f68	-0.05700627
57	0xbddf0b23	-0.10890796
58	0xbdafde85	-0.08587364
59	0xbd1bf47c	-0.038074955
60	0xbdab0e7f	-0.08352374
61	0xbdd5e7b6	-0.10444586
62	0x3d7d7452	0.06187851
63	0xbd150ecd	-0.03639107
64	0x3d8fa7a6	0.07014398
65	0xbc7e4426	-0.015519178
66	0xbd53dce8	-0.051724344
67	0xbde42785	-0.1114035
68	0xbddcbe12	-0.107784405
69	0x3da10c4c	0.078636736
70	0x3d2be118	0.041962713
71	0xbc02ad72	-0.007975923
72	0xbce6fbf3	-0.02819631
73	0xbdd537e6	-0.104110524
74	0x3dde0a93	0.108418606
75	0x3deea384	0.11652282
76	0xbd8e6536	-0.06952898
77	0x3c883c63	0.016630357
78	0xbdc72a59	-0.09724874
79	0xbdaf28e3	-0.085527204
80	0xbb2eb734	-0.002665949
81	0xbd966000	-0.07342529
82	0xbde50865	-0.11183242
83	0xbd78113f	-0.060563322
84	0xbddb13bf	-0.10697126
85	0x3d1262f2	0.035738893
86	0xbda28fce	-0.07937585
87	0x3dc2e2d1	0.09515918
88	0x3d890891	0.06691087
89	0x3de26d59	0.11056013
90	0xbdd21796	-0.10258405
91	0x3d86038f	0.065436475
92	0x3dbfa61f	0.09357857
93	0x3c3bea08	0.011469372
94	0xbc1ae8a0	-0.009454876
95	0x3d6b1006	0.057388328
96	0x3d0109b2	0.031503387
97	0xbd364b16	-0.0445052
98	0xbdec1da5	-0.11529092
99	0xbd9a3238	-0.0752911
100	0x3d6d9cdf	0.058010932
101	0x3db155f2	0.08658971
102	0x3c073897	0.008253238
103	0xbd5a1246	-0.053240083
104	0x3d5e7f60	0.054320693
105	0xbcbf0d99	-0.023321914
106	0x3d246859	0.040138576
107	0xbda4033d	-0.0800843
108	0x3d842ea3	0.06454208
109	0xbd5d5d70	-0.054044187
110	0x3cb1bba4	0.02169592
111	0x3cbb22dc	0.02284377
112	0x3dedaca3	0.116051935
113	0x3ddcd1c7	0.10782199
114	0xbdc75112	-0.0973226
115	0x3d6fd9d2	0.05855734
116	0xbdc17e8e	-0.094479665
117	0xbd6c0db7	-0.057630267
118	0x3d3e83fa	0.04651258
119	0xbda525ee	-0.08063875
120	0x3dcf055b	0.10108443
121	0x3d36cfaa	0.044631638
122	0x3c2524e8	0.0100796
123	0x3d873ca3	0.066033624
124	0xbdcdaac0	-0.100423336
125	0x3c9f530c	0.01944878
126	0x3d33ee8a	0.04392866
127	0xbd5e17ec	-0.054222032
128	0xbd161ae0	-0.036646724
129	0x3d43ddbe	0.04781889
130	0x3dcc83b9	0.099860616
131	0xbd3c4f42	-0.045974024
132	0x3d91c6f9	0.07118029
133	0x3d87578d	0.06608496
134	0xbd8d4aac	-0.06899008
135	0xbdbfe8af	-0.09370553
136	0xbc6391af	-0.013889714
137	0x3d95d190	0.073153615
138	0xbdc9491f	-0.098284
139	0xbda7c318	-0.08191508
140	0x3dafef97	0.0859062
141	0xbd8a741a	-0.06760426
142	0xbdac6148	-0.084169924
143	0xbba49b0a	-0.005023365
144	0x3dec40c5	0.11535791
145	0x3d9f3f11	0.07775701
146	0x3d791e62	0.06081999
147	0x3c771a78	0.015081994
148	0xbd71eb4d	-0.05906229
149	0xbdbc1b4e	-0.091848955
150	0x3d804419	0.062629886
151	0x3d0f1e1a	0.034940816
152	0x3cfb5034	0.030677892
153	0xbd32741c	-0.04356776
154	0xbdeb8e97	-0.11501806
155	0x3c841744	0.016124375
156	0xbca64d7c	-0.02030062
157	0xbc1220d8	-0.008918963
158	0x3c375938	0.011190705
159	0xbd8d1f94	-0.06890789
160	0xbd966260	-0.07342982
161	0xbd0c0e38	-0.034193248
162	0x3d3b64ee	0.04575055
163	0xbd9726ee	-0.07380472
164	0x3de10761	0.109877355
165	0xbded98af	-0.11601388
166	0xbd95d87a	-0.0731668
167	0x3d0a649e	0.033787362
168	0xbdead84c	-0.114670366
169	0xbd8607d8	-0.06544465
170	0x3d792bc2	0.060832746
171	0xbda39fce	-0.07989465
172	0x3d1aa5da	0.037755825
173	0xbd80a45c	-0.06281349
174	0xbd64273e	-0.055701487
175	0x3ca7828c	0.020447992
176	0x3c3afbd8	0.011412583
177	0x3ddaeaff	0.10689353
178	0x3cc8db74	0.024518706
179	0x3ca8153c	0.020517938
180	0xbd7ab7e8	-0.061210543
181	0x3dd1c6fb	0.10243031
182	0xbacacb40	-0.001547195
183	0x3d906c43	0.07051899
184	0xbdc13316	-0.09433572
185	0x3d7c8d2e	0.061658077
186	0x3dc416d7	0.09574669
187	0x3d9c6793	0.07636943
188	0x3dc9a6c5	0.09846262
189	0xbd5b6d10	-0.053570807
190	0xbdad2a4b	-0.08455332
191	0x3d2dc966	0.042428397
192	0x3d512a46	0.051065706
193	0xbd92a7b0	-0.0716089
194	0xbd1b0512	-0.037846632
195	0xbac63340	-0.0015121475
196	0xbc21f908	-0.009886034
197	0x3d66e246	0.056368135
198	0x3dab6f0b	0.08370789
199	0x3d0b878e	0.034064822
200	0xbd3f1b60	-0.046656966
201	0xbd96886c	-0.07350239
202	0x3dd0754d	0.10178623
203	0x3c585ab8	0.013205223
204	0xbd7c8f4c	-0.061660096
205	0xbdb41527	-0.08793097
206	0xbda3fa9c	-0.08006784
207	0x3de169c1	0.11006499
208	0xbd9802a4	-0.07422379
209	0xbdeafa9f	-0.114735834
210	0xbdb4d49c	-0.088296145
211	0xbd6537af	-0.055961307
212	0xbb6bfb60	-0.0036007985
213	0xbda57f96	-0.08080976
214	0x3d5494da	0.05189977
215	0xbc9e7388	-0.019342199
216	0xbd48f33e	-0.0490601
217	0xbd926eae	-0.07150017
218	0xbd18d758	-0.037314743
219	0x3dea7e5d	0.11449883
220	0x3bc28e00	0.005937338
221	0x3d0803d2	0.03320677
222	0xbde9cfb5	-0.1141657
223	0x3d936081	0.07196141
224	0x3c987f54	0.018615402
225	0xbc559f98	-0.013038538
226	0x3b0b81e0	0.0021287128
227	0xbd5f0854	-0.0544513
228	0xbdbb6052	-0.09149231
229	0xbd71986c	-0.05898325
230	0x3d17730e	0.03697496
231	0x3dcbdcd7	0.09954231
232	0xbda813e8	-0.08206922
233	0x3d5e14d2	0.054219075
234	0xbd6aa3ad	-0.057285
235	0x3db5fabb	0.08885714
236	0x3c6b9ce8	0.014380671
237	0xbddb4b16	-0.10707681
238	0xbdd03395	-0.101660885
239	0x3ce847b4	0.028354503
240	0x3d86cd63	0.06582143
241	0x3d0e7b82	0.034785755
242	0x3d04d69a	0.032431222
243	0xbc978c08	-0.01849939
244	0xbd70db6b	-0.058803003
245	0x3ca684fc	0.020327084
246	0xbdbf54dc	-0.093423575
247	0x3d70dfd6	0.058807217
248	0xbd37d3c4	-0.04487969
249	0xbdd85d24	-0.1056464
250	0x3c51d078	0.0128060505
251	0x3d398eda	0.04530225
252	0xbdb830a6	-0.08993654
253	0xbd985960	-0.07438922
254	0xbcacecc0	-0.021108985
255	0xbd47af6a	-0.048751272

decoder.6.bias f4 [8]
0	0xbc8016fc	-0.01563596
1	0x3d372236	0.04471036
2	0xbc76ab99	-0.0150555605
3	0x3ce0d9a6	0.027447533
4	0xbda22712	-0.07917608
5	0xbc14951f	-0.009068756
6	0xbd6a2eb2	-0.05717344
7	0x3da7ffb4	0.082030684

decoder.8.weight f4 [8, 3, 3, 3]
0	0xbe44d60e	-0.1922228
1	0xbdc64c51	-0.09682525
2	0xbd9b9dbc	-0.07598445
3	0x3dadf9b6	0.08494894
4	0xbdafdfcf	-0.0858761
5	0xbdf87e4b	-0.121334635
6	0xbc37e190	-0.011223212
7	0xbd7c7f7c	-0.061645016
8	0x3e3f63ed	0.18690462
9	0x3df27136	0.118379995
10	0x3e1a22cb	0.15052335
11	0xbe251d06	-0.16124353
12	0xbd4b50b4	-0.04963751
13	0xbe170867	-0.14749299
14	0x3e31d475	0.17366202
15	0x3de9bda6	0.11413126
16	0xbe1a559d	-0.15071721
17	0xbe11a9eb	-0.14224975
18	0x3dc47e5e	0.09594415
19	0xbdc8698b	-0.09785756
20	0x3d783436	0.060596667
21	0xbe2be31d	-0.16785856
22	0xbe1d5939	-0.15366067
23	0xbd87a89a	-0.06623955
24	0xbe18a660	-0.14907217
25	0x3df2dd1f	0.11858582
26	0xbe17320a	-0.14765182
27	0xbd80fa04	-0.06297687
28	0xbe40cde4	-0.18828541
29	0x3e34d239	0.17658319
30	0x3d00a48c	0.031406924
31	0xbdef7a8d	-0.116932966
32	0xbd2caae0	-0.042155147
33	0x3d6c57ac	0.057700798
34	0xbd86e072	-0.06585778
35	0x3e1d4809	0.1535951
36	0xbd354ba8	-0.044261605
37	0x3e3875b3	0.18013649
38	0x3dd716f6	0.10502426
39	0x3e0b0b6b	0.13578574
40	0x3ba63680	0.005072415
41	0xbd634e2c	-0.055494472
42	0x3da7af6a	0.081877545
43	0x3df79f46	0.12090926
44	0x3cd7a090	0.02632168
45	0x3d1e460a	0.038641013
46	0x3e282ece	0.16424105
47	0xbdda6513	-0.106638096
48	0xbd2594d0	-0.04042512
49	0x3c66c814	0.014085788
50	0xbcc42056	-0.0239412
51	0xbde1809a	-0.11010857
52	0x3d78d784	0.060752407
53	0x3d10148e	0.035175852
54	0xbdee88b4	-0.11647168
55	0xbc31f3c0	-0.010861337
56	0x3cb4c260	0.022065341
57	0xbca02d28	-0.019552782
58	0x3d72ac84	0.059246555
59	0xbe35270c	-0.17690676
60	0xbcd98e70	-0.026557177
61	0x3e11686f	0.14199995
62	0x3bae5da0	0.0053212196
63	0xbcba6550	-0.022753388
64	0xbd578770	-0.052619398
65	0xbcf36530	-0.029711336
66	0xbcb97548	-0.022638932
67	0xbdc01231	-0.0937847
68	0xbe0cc821	-0.13748218
69	0xbc86d038	-0.016456708
70	0x3e436957	0.19083153
71	0x3e149d45	0.14513119
72	0x3c18dd6f	0.009330138
73	0x3daaad36	0.083338186
74	0x3d2d3779	0.04228923
75	0xbdca2816	-0.09870927
76	0x3d8e548b	0.06949719
77	0x3db4042d	0.08789859
78	0xbc50ddc3	-0.012748185
79	0x3deb0160	0.11474872
80	0x3d9cd165	0.07657126
81	0xbdbad50b	-0.09122666
82	0x3d65b3fc	0.05607985
83	0x3db3e6ca	0.08784254
84	0x3e1baef3	0.15203457
85	0xbe0653be	-0.13117883
86	0xbe35bc06	-0.17747506
87	0xbd9a6ac1	-0.07539893
88	0x3c851338	0.016244516
89	0xbe1b76e7	-0.15182076
90	0xbd42d4c4	-0.04756619
91	0xbe102814	-0.14077789
92	0xbe152980	-0.14566612
93	0x3d6f4404	0.058414474
94	0x3dc072f6	0.09396927
95	0x3cd46b20	0.025929987
96	0x3e08b47f	0.13350104
97	0xbd3ce9a8	-0.04612127
98	0x3ccbec98	0.02489309
99	0x3e1052e3	0.14094119
100	0x3e207a90	0.15671754
101	0x3d5242ff	0.051333424
102	0xbe2a33a8	-0.16621268
103	0x3d303d40	0.043027163
104	0x3e09768c	0.13424128
105	0x3d82e48d	0.06391249
106	0xbe4558ca	-0.19272152
107	0xbd899950	-0.06718695
108	0xbdc9ee9f	-0.098599665
109	0xbe315e13	-0.17321043
110	0xbe23f56b	-0.16011588
111	0x3dfec362	0.1243961
112	0xbdfc8123	-0.123293184
113	0xbded91f2	-0.116001025
114	0xbdab85d9	-0.08375139
115	0xbca7b140	-0.020470262
116	0x3dea4fbe	0.11440991
117	0xbe422631	-0.18959881
118	0xbdb03fe0	-0.08605933
119	0xbd008738	-0.031378955
120	0x3d5ab9ac	0.053399727
121	0xbddab15b	-0.10678359
122	0xbd5650cc	-0.052323148
123	0xbdd3ee3e	-0.103481755
124	0xbd30f0bc	-0.043198332
125	0x3dcbc136	0.099489614
126	0xbda6a6ac	-0.08137259
127	0xbcd3e0f0	-0.025864094
128	0xbe011728	-0.1260649
129	0x3d5c3020	0.053756833
130	0xbdfd224d	-0.12360058
131	0x3d36b5dc	0.04460703
132	0xbe44326a	-0.19159856
133	0x3d99e8a6	0.07515077
134	0x3d8de066	0.06927566
135	0xbe157bcc	-0.14598006
136	0xbcc8b110	-0.024498492
137	0xbdec78d0	-0.11546481
138	0xbdbc3826	-0.09190397
139	0x3db69aee	0.08916269
140	0xbde10f5c	-0.10989258
141	0x3dde84ce	0.10865174
142	0x3dc73456	0.09726779
143	0x3e30b0f3	0.17255001
144	0xbd937d31	-0.07201613
145	0xbe2ec796	-0.17068323
146	0x3dff21de	0.124576315
147	0xbd397b0c	-0.045283362
148	0xbd9b279b	-0.075759135
149	0xbdbac74c	-0.09120044
150	0x3e374493	0.17897253
151	0xbe1955e8	-0.14974177
152	0x3d2b35c4	0.04179932
153	0x3d1d72ea	0.03843967
154	0xbd9969e7	-0.074909024
155	0x3de08718	0.10963267
156	0x3de383f3	0.11109152
157	0x3e044e5f	0.12920521
158	0x3d52f9f3	0.0515079
159	0x3d513c15	0.05108269
160	0x3d5ed178	0.054398984
161	0xbd7bfb04	-0.061518684
162	0xbe1d760e	-0.15377066
163	0x3bb8a4a0	0.005634859
164	0x3c91bee0	0.017791212
165	0x3df3839e	0.11890338
166	0x3d04cc88	0.03242162
167	0x3bb050a0	0.005380705
168	0xbd8ba74f	-0.06819021
169	0x3e24f833	0.16110305
170	0x3e2e3e85	0.17016037
171	0x3e41d473	0.18928699
172	0xbc49c640	-0.012315333
173	0xbdc17665	-0.0944641
174	0xbe1f8b9e	-0.15580603
175	0xbe41ef51	-0.18938948
176	0xbe1db907	-0.15402614
177	0xbd7c1084	-0.061539188
178	0x3e198ac1	0.14994337
179	0xbe35a940	-0.17740345
180	0xbd6aa210	-0.05728346
181	0x3d9e4ae6	0.077291295
182	0x3db921c2	0.09039642
183	0x3c0a9a30	0.008459613
184	0xbd311dd0	-0.043241322
185	0x3c15e2a0	0.00914827
186	0xbdf6fa16	-0.12059419
187	0x3dc224c2	0.09479667
188	0x3de650b6	0.11245863
189	0x3d043488	0.03227666
190	0x3e0a505b	0.13507216
191	0x3de81382	0.11331846
192	0xbe3898c3	-0.18027024
193	0xbd9af2d7	-0.07565849
194	0xbe27c90a	-0.16385284
195	0x3d8f8c4a	0.0700918
196	0xbe30cdb3	-0.17265968
197	0x3d3b3820	0.04570782
198	0xbe2029fe	-0.15641019
199	0x3dc9180a	0.09819038
200	0xbe06f768	-0.13180315
201	0xbe3170f4	-0.17328244
202	0xbd9f3a72	-0.077748194
203	0x3d824ab6	0.06361906
204	0xbda86e31	-0.08224142
205	0x3d932576	0.071848795
206	0x3bc967e0	0.006146416
207	0xbdda9b15	-0.10674111
208	0xbc8cb6a4	-0.017176934
209	0x3de6b712	0.11265387
210	0xbdf418a0	-0.11918759
211	0x3e25c89c	0.16189808
212	0x3d36be70	0.04461521
213	0x3dc77590	0.0973922
214	0xbd34b63c	-0.044119105
215	0x3e089f25	0.13341959
