autoencoders/checkpoint/autoencoder/val_best_morenn.pth (torch_old, 578444 bytes, 16 tensors)

encoder.0.weight f4 [200, 224]
00000000: 4964 cabb 6cbe 33bd 3cdb 20bd 7825 9abc
00000010: e3a6 793c 708c f7bc 9aeb 7c3c 9339 1f3e
00000020: d8cf 253c fa70 4ebd 8763 2fbd 252d 65bd
00000030: 876f 9c3c eab2 14bb 57bf 1e3d 3512 74bd
00000040: 7d13 273d 36f5 3ebc 9637 b1bd 1ddd 32bd
00000050: 9e93 f33c a68b 2dbc a22e eebb bf79 6a3d
00000060: 53b3 a03d c810 1c3d 62b3 ca3c f78f 7f3d
00000070: 63a2 76bc 44cc bb3c 9065 993b a055 7dbc
00000080: 1dc6 a8bc 0ce8 4c3c 79cd 58bc 3fe9 44bc
00000090: 044a 333d dabd 093d 0c8c ae3c 7573 edbc
000000a0: f2ff 143d 1a85 25bc 9837 083d 1028 9d3c
000000b0: 106e 393d be20 663c 2153 65bd f786 ecbc
000000c0: 030d 123d d8db 0d3e 0654 783d 82a3 023e
000000d0: 7d49 61bd ae7e b8bd bfb1 b4bc 7340 1cbb
000000e0: e8c9 17bd a37e a13c 3d2a 053d 2d93 c03b
000000f0: 2974 0cbc 4b38 07bd 9148 89bc e71e ed3c
00000100: 590a 8abb e029 8d3b ac5e 543c 0600 2b3c
00000110: f3b7 5cbb 908a 50bb 12c0 41bd a1cd 84bb
00000120: 5ebc dc3c 0d68 d13b d612 8a3c e389 603d
00000130: 0404 28bd e109 0d3d 0c21 2fbc 59b3 1abd
00000140: 4bd8 973d 35ae acbc 772b 28bb 36c5 d93d
00000150: c26e 393c 54df 193c ef79 a339 c564 6c3e
00000160: c373 6b3d 3d65 3ebd 72a7 c73c 5856 f9bb
00000170: 9d91 243e 8b66 f83d 8f08 f43c d53b c43c
00000180: edc9 2c3d 4e8a be3d 4eb4 123e 4993 6bbd
00000190: 45ac 9e3d e935 06bd ad7b 0f3e 6f0a 24be
000001a0: fff0 c6bd a24c eebc 5408 093d c7d4 2dbd
000001b0: f560 103d d9a5 363d 4d37 7f3d ce5b 2b3d
000001c0: 028e 193d b442 19bd ebe0 ee3b e006 853d
000001d0: 9a5c f13d 490d 573c c65e e33c 4749 7cbd
000001e0: b5b9 d3bc 27af 95bc 581e 98bd bc40 cebd
000001f0: 6fa1 c13e 4e7b b93d fe89 d43d f948 e23d
00000200: be70 3e3e a849 08bd 2915 473e 05c8 d3bc
00000210: 4f8b b3be c547 3cbf 46b5 08be 734a ea3e
00000220: c993 f8be b3c0 adbd ad86 34bc d447 aebc
00000230: d93b 9bbd ea59 65bd 8091 75bb 7bb9 43bc
00000240: c1b9 1d3b 493d 99bc b193 27bd fbc8 733c
00000250: d35b a2bb d826 d23d 2b31 4c3d 3264 6abd
00000260: f8fc 5a3c 5b37 e3bc 7e81 15bd f26a 84bd
00000270: 0bf5 c13c 329b 3c3d 8d96 873d e141 023d
00000280: e4f3 6fbd 73e0 15bd 9ccd a4bd 9c04 46bd
00000290: f5ec 08bd b7cc ca3b b504 093e 20e1 433d
000002a0: 36c8 1c3d 60ed 3c3c ae78 973b 4a7e 6abb
000002b0: 27e4 ce3b 8bf3 963a 3bcc a43b 4e9c 083b
000002c0: 67bf 303c bf2a d6bb b174 04bb 1ec0 e2bb
000002d0: 4755 97bc 18a0 45b9 4da9 84bc 0118 bf3c
000002e0: 39d9 58be 8755 963b d465 1bbd 4018 293d
000002f0: e1ec e13c b4ce 5ebd fd74 053d 70bf d03b
00000300: 8daa fb3c 9410 173d dfda a33c ec8e cc3b
00000310: 5817 1c3d 3b74 02bc cec9 0a3d 2dd7 433d
00000320: de93 a9bc e0ef e13c b1d6 fe3c c342 973c
00000330: 3b1f f43c e148 753c 3574 3b3d f02d 323c
00000340: 0815 bebb 8bb2 8d3d d8c9 14bc e2ec f2bc
00000350: fc94 643d 49e6 973d a725 3d3e 28a2 773d
00000360: da35 123c d7d1 9b3d ca08 793c 1bd5 4c3c
00000370: 3395 963d 1e95 223d d6d2 9c3d 4b2e da3d
00000380: ece4 f4bd 7e5e 8dbd 3358 73bd 1a5a 7ebb
00000390: 59da 213e 129a f13c 94ec 1fbe a346 f13c
000003a0: 367e 433e a505 e93d 9aa0 543c a5f7 4f3d
000003b0: dccb 0ebc 165b ab3c 2dea 16be d84b 22bd
000003c0: ffb7 de3c f7d9 85bc 7f81 8d3c 4947 1f3d
000003d0: 3d5f 073d feb0 4f3d b703 e43d 3934 e6bb
000003e0: 82d8 08bb 74f3 323d 79e6 083f 31e8 943e
000003f0: 3235 b9bc eaa5 d13c 356f b73e 2003 893e
-0.0061765057 -0.043882772 -0.03927158 -0.018816695 0.015237543 -0.030218333 0.015437031 0.15549307
0.010120355 -0.05040071 -0.042819526 -0.055951256 0.01909615 -0.002268965 0.038756695 -0.059587676
0.04079007 -0.0116551425 -0.0865318 -0.0436679 0.029733475 -0.010592377 -0.0072687427 0.057245012
0.078467034 0.03810194 0.02474374 0.062393155 -0.015053364 0.02292455 0.0046812966 -0.015462309
-0.02060228 0.012506496 -0.013232582 -0.012018501 0.04377176 0.033628322 0.021307014 -0.028985718
0.0363769 -0.010102535 0.033256143 0.019184142 0.04527098 0.014045892 -0.05598748 -0.02887295
0.03565694 0.13853395 0.060627006 0.12757686 -0.055001725 -0.09008537 -0.022057412 -0.0023842126
-0.037057787 0.019713705 0.032510985 0.0058769197 -0.008572617 -0.03301267 -0.016758235 0.0289454
-0.0042126593 0.0043079704 0.012962025 0.010437017 -0.0033678978 -0.003182087 -0.047302313 -0.004052833
0.02694529 0.0063905776 0.016854685 0.054819 -0.041019455 0.03443325 -0.010689031 -0.037768696
0.074143015 -0.021079162 -0.0025660673 0.10633318 0.011317911 0.0093916245 0.0003118063 0.23085316
0.057483446 -0.046483267 0.024371836 -0.00760917 0.16071172 0.121289335 0.029789237 0.023954311
0.04218476 0.09303723 0.14326593 -0.05751351 0.077477016 -0.032766256 0.14012022 -0.16019605
-0.09713935 -0.029089276 0.033455208 -0.04243925 0.035248715 0.04459176 0.0623086 0.0418356
0.037488945 -0.03741713 0.007289996 0.06495452 0.117852405 0.013125726 0.027755152 -0.06159332
-0.025845388 -0.018271996 -0.074276626 -0.10070941 0.37818477 0.09056722 0.103778824 0.11049075
0.18597695 -0.03327337 0.19441666 -0.025852213 -0.35067222 -0.7354701 -0.133504 0.45759925
-0.4855025 -0.0848402 -0.011018437 -0.021274485 -0.075797744 -0.05599395 -0.0037470758 -0.011946077
0.0024067017 -0.01870598 -0.040912334 0.01487946 -0.004954794 0.10261315 0.049851578 -0.05722446
0.0133659765 -0.027736356 -0.036500446 -0.06465711 0.023676416 0.046046443 0.06620512 0.03180111
-0.0585822 -0.036591005 -0.080470294 -0.04834424 -0.033429105 0.0061889547 0.13380702 0.047822118
0.038276874 0.011531204 0.0046225404 -0.003578084 0.006313819 0.0011516673 0.005029229 0.0020845118
0.010787821 -0.0065358575 -0.0020211155 -0.006919875 -0.01847328 -0.00018847024 -0.01619401 0.023326876
-0.21176614 0.0045878324 -0.037938908 0.041282892 0.027578773 -0.054396346 0.03258227 0.0063704774
0.030720973 0.036881045 0.020001827 0.0062426236 0.0381082 -0.007962282 0.033883862 0.04781263
-0.020700391 0.027580202 0.031108232 0.018464452 0.029800048 0.014970989 0.04576512 0.01087521
-0.005800847 0.0691882 -0.009081326 -0.02965397 0.055806145 0.0741697 0.18471394 0.06045738
0.008923972 0.07608383 0.015199849 0.01250198 0.07352676 0.03969299 0.07657401 0.10653361
-0.11957726 -0.069027886 -0.059410285 -0.003881103 0.1580595 0.029492412 -0.15617591 0.029452628
0.19091114 0.1137803 0.0129777435 0.05077328 -0.008715596 0.020917457 -0.14737768 -0.03962311
0.027187346 -0.016339285 0.017273663 0.038886342 0.03304981 0.050705902 0.11133521 -0.0070252684
-0.0020881002 0.043689206 0.53476673 0.29083398 -0.022608373 0.02559181 0.35827032 0.26760197

encoder.0.bias f4 [200]
00000000: 5d62 103e d8cd 38bf 6378 a1be 4e32 58be
00000010: 8981 81be 4be4 c1bf 0386 01bf 36e6 1ebe
00000020: 2bee 2cbf 8dc8 bd3d 2bcb 32bf 2e2b 7abf
00000030: 005e dcbe 6aec 6c3e b7e3 a3bf 81c8 8cbf
00000040: 6c9b 603f 37a5 b4be ea46 5bbf 573a 10be
00000050: 5321 34bf a1b4 d3be 2b68 6abf 087a 2a3f
00000060: a3e2 60bf 3dbd 1d3e 4962 78bd 4426 8f3d
00000070: 1389 803d 2a32 f5be bd25 323f 1f61 6bbf
00000080: f5a3 96bf b9a1 8ebe 4455 e7be 4a81 0bbf
00000090: ba30 e9bd bdf3 c5be 5589 a5be 36e3 6dbe
000000a0: a3e5 423f a9c2 d23e 4a1c 473d 9a3d 88be
000000b0: e1d7 903e 1dbf c63d c9cc e8bd e16b cabf
000000c0: f4fa 53bf aa67 debe 49f7 02be b43c 82be
000000d0: 59c9 f43e 3677 9b3e e0a1 8bbf 8343 1dbf
000000e0: ea03 d1bc 8d1c c0be 8d9d 22be 15ac a63e
000000f0: 4a7e 4d3e 5ac8 3bbf d067 8dbe 9a69 71be
00000100: dbe8 80bb 918f 2fbf 10c1 263f 0fdd 4dbf
00000110: 9501 5cbf 1383 33bf 1d4b 84be 1c50 d7be
00000120: cae7 003e 0002 c73e d90a 013f a763 cc3d
00000130: 6246 79be f167 04bf f327 36be ddbc 233f
00000140: f14a 56bd ec24 113f 2162 86bd 0696 84be
00000150: 7b2f 8abe d411 e73e 9bec a0bf b751 9bbe
00000160: 814f 5fbe 04ff 943d 70ee 1dbe 1bce 54bf
00000170: 10f4 90bf 99b6 f13e 3790 a63e 6f89 e23d
00000180: e4ea edbe 7948 56bf 789a bbbe 7556 963e
00000190: 82ed 19bf 8826 0abf 4761 393e db4f 973f
000001a0: ccc9 99be 52da fb3e d3d9 a6bf 6b33 d43e
000001b0: bc74 58bf 0e70 df3d 9131 41bf d925 4c3e
000001c0: 98ae dfbd 1a48 9a3d 0163 08bf 4d01 9dbe
000001d0: 1a1d c1be 18fc 033f c7fb 47bf d61a 75bf
000001e0: 32b9 4ebf 398a b03c 94b1 37bf b860 cabc
000001f0: e20a 633f ce86 c53e 08f0 13bf 8c37 d63d
00000200: da29 ebbe 5131 1bbf c03e abbf 85bd 69bf
00000210: 3ddf 7ebe 7a96 cd3e a224 2ebf d4aa 68bf
00000220: cac6 0bbe 3629 fb3d 5c63 b43c 95ac 0c3d
00000230: de4a a6bd f957 d2be 24b7 0cbf d541 58bf
00000240: 820f 5bbf f6f1 0dbf 7d26 55bd d951 80bf
00000250: b94f 1cbf 388a 14be 4c12 5cbe f106 98be
00000260: 72e2 9fbe f0f4 5dbf 690b 88bf 7e0c 8dbe
00000270: 845e 1fbf 39bc d63e 2947 7cbe 5e18 463f
00000280: 5f2c f73d 8542 7cbf 299e 5cbf 487e 483f
00000290: 60c5 cfbc 702a 63bf ba77 8abe 6f9b 85bd
000002a0: 413f 36bf 79f2 9f3e 884a 913f dd57 31be
000002b0: 25e3 4bbf e1a8 543f 2688 a2bf a7f4 b8bd
000002c0: c416 16bc 4330 8e3e 1312 74bf 69e6 8e3e
000002d0: 66e8 2abf 2de9 8cbe 0ff0 86bf 941c 013f
000002e0: 6a5d 92be 4e12 4e3e 106b 33bf 9499 403e
000002f0: 8260 71bf 65e4 75bf 4d4d 89bf 2444 fabe
00000300: 247a 473e 136d 2c3f b252 9fbd e669 babf
00000310: afaa 20be 9777 2dbf 9edd 48bf 17ef 78bf
0.14100023 -0.7218909 -0.3153716 -0.2111294 -0.2529414 -1.5147794 -0.5059511 -0.15517506
-0.67550915 0.09266768 -0.6984126 -0.97722137 -0.43040466 0.2313706 -1.2803868 -1.0998689
0.87737155 -0.352823 -0.8565508 -0.14084755 -0.7036335 -0.41348746 -0.915652 0.66592455
-0.8784582 0.1540422 -0.060640607 0.069897205 0.06276145 -0.47889835 0.69588834 -0.9194507
-1.1768786 -0.2785776 -0.4518224 -0.54494154 -0.11386247 -0.3866252 -0.3233134 -0.23231205
0.7613165 0.4116414 0.048610963 -0.26609498 0.28289703 0.09704421 -0.11367185 -1.5814172
-0.828048 -0.43438464 -0.12789644 -0.25436938 0.47809866 0.30364388 -1.0908775 -0.6143114
-0.025514562 -0.37521783 -0.15880413 0.32553163 0.20067707 -0.7335259 -0.27618265 -0.2357544
-0.0039340085 -0.6857844 0.6513834 -0.80415434 -0.85939914 -0.7012188 -0.25838557 -0.42053306
0.1258842 0.38868713 0.5040718 0.09979945 -0.24343255 -0.517211 -0.17788677 0.6396006
-0.052317563 0.56696963 -0.06561685 -0.2589571 -0.2698935 0.4513079 -1.2572206 -0.3033578
-0.21807672 0.07275203 -0.15422988 -0.8312699 -1.1324482 0.47209623 0.32531902 0.1106137
-0.4646827 -0.83704334 -0.36641288 0.29362836 -0.60128033 -0.53965044 0.18103515 1.1821245
-0.3003677 0.49190003 -1.3035225 0.4144548 -0.8455312 0.109100446 -0.7546626 0.19936313
-0.10921973 0.075332835 -0.5327607 -0.30665055 -0.37717515 0.5155654 -0.78118557 -0.95744073
-0.80751336 0.021550285 -0.7175534 -0.024704322 0.8868848 0.3857941 -0.57788134 0.104598135
-0.45930368 -0.60622126 -1.3378525 -0.9130481 -0.24889846 0.40153867 -0.6802465 -0.90885663
-0.13650051 0.1226372 0.022020034 0.034344275 -0.081197485 -0.41082743 -0.5496695 -0.8447545
-0.8557054 -0.5544733 -0.05203866 -1.0024978 -0.6105915 -0.14505851 -0.21491355 -0.29692796
-0.31227452 -0.8670187 -1.0628482 -0.27548593 -0.62253594 0.41940477 -0.2463652 0.7738093
0.1206901 -0.98539 -0.86178833 0.7831769 -0.02536267 -0.8873663 -0.2704447 -0.06523787
-0.7119027 0.3123968 1.135087 -0.17318673 -0.7964347 0.8307019 -1.2697799 -0.09031039
-0.009160701 0.27771196 -0.9534008 0.27910164 -0.6676086 -0.2752165 -1.054201 0.5043423
-0.28586894 0.2012417 -0.7008524 0.18808585 -0.94287884 -0.9605163 -1.0726715 -0.48880112
0.19480187 0.67353934 -0.07779445 -1.4563568 -0.1569011 -0.67760605 -0.7846316 -0.9723982

encoder.2.weight f4 [100, 200]
00000000: 7938 483d c072 98bb 0177 37bd 99b8 d2bc
00000010: 2362 913e 732c 7a3c 2172 98bd ce3f 3e3e
00000020: 96df 65bd 5fb3 0fbe 8e27 cd3d 6986 d33d
00000030: 12d3 d73d 5122 be3c b616 89ba 718e aabe
00000040: 5fef aabd 161f d93c ac52 d73c d19e f93d
00000050: f405 4dbd 22bc d7bb 143b 633d 9b9c 4d3d
00000060: 9458 a8bc 7ad3 52bd 08e8 26bd 95f4 14be
00000070: 416a d63d 918d 793c b53d 093e 7795 123e
00000080: 6514 83bc 42fb 99bd e719 a3bd 52fe 063d
00000090: 2dce 343d a7e5 c33d 1e0c 25bd b18a e93c
000000a0: 247c 76bd f9ab cbbd c6b0 c43c eb87 e4bc
000000b0: 9333 913e 6a56 7f3c cf30 863d f666 593c
000000c0: a491 823d 3803 6ebe 1363 e2bd 2a21 1d3d
000000d0: 45c8 0bbd 309b 313d 2b2e f23d fefd 40bd
000000e0: b196 77be b416 b13c 0b30 d9bb 87e8 603c
000000f0: 6cdf 0cbb 0725 143c b579 37bd 605a d83c
00000100: 464a 9dbd c991 01be 8c96 0bbb 2b9e f53d
00000110: d4b8 f5bc 545c 0c3e 3c09 dcbc 0483 c7bc
00000120: aa24 27bd 38ba 8d3d e85f d6bc eebb bb3d
00000130: bc42 27bc 1b9a 6a3d 2bcb 933c 90d2 66bc
00000140: 69d5 533c 52a6 d7bc 343f 78bc 599e 49bd
00000150: 2db7 2fbe afd2 2fbe d922 05bd 4136 253d
00000160: d627 d23c fa03 c4bc 3002 58bd 7218 833d
00000170: 2e95 953d 26b0 b03d 463e df3c 82aa 29be
00000180: b32c cabc 49b9 933d 1c5d 873c b23e f7bd
00000190: d42d ac3d 2b0c c03c 5a36 8cbd d6f3 9f3d
000001a0: a56e 9dbd a0e1 c0bb e06f 37be 9d15 89bd
000001b0: d19d 6fbd 96d8 01bd 8959 05bd c8ce 74bb
000001c0: 47b6 b03d 01c2 dc3c 4124 2e3d 1a60 a2bd
000001d0: 53d7 72bc ca31 afbd c7e3 16bc 3d6f aabc
000001e0: 98fc 0cbe 564a 4f3d d8f7 63bc 5d95 223d
000001f0: d27a 2abe aff4 08bd 2fb8 123c 3864 b7bb
00000200: 66f4 8a3d f4ed 3b3d 83cb 93bc bbcc 92bb
00000210: 36e3 babd c37c 7ebe 79bf fcbc 30ad a63c
00000220: 1309 503d 8d66 1b3d cb0e 7f3d f522 043d
00000230: 241b b639 413c b4be 6054 e03c 2b67 7b3c
00000240: 98c4 5f3d 33df 1c3d 22ca 003d 4afe 493d
00000250: faab 6ebd d86c c1bc c5a6 f8bc 1ecf a9bc
00000260: d9bf a93c 8ed9 08bc 9982 99bc a999 59bc
00000270: caaa d43b df01 993b 187c 853d be8e f93d
00000280: 74eb 59bc 483d 05bd 0959 f93b 043e 8b3d
00000290: 428e 8a3b e293 4cbd e096 003d 2d41 553d
000002a0: 2be7 373c b0b0 14bd 1f38 f63e 2d1f 783c
000002b0: 9a71 73bd e509 66bb 65e0 b73e ba33 a0bd
000002c0: 707a 9a3c d10c 0ebe 8c62 3f3d dc16 d8bd
000002d0: 6641 093d 44e4 3abd 9f70 88bc fb3f 01bd
000002e0: 71c7 1bbd 208d a83c 9f27 2ebe 9294 703c
000002f0: b544 603d 0a43 ad3d 5894 20bc 0f42 38bc
00000300: 2c20 00bc 8ede ca3d 3e99 87bc 3082 91bd
00000310: 4846 dabc aac0 313c c606 22bd fc87 2dbd
00000320: dd0d b03c 37d4 ddbd 2aed 493c 8cca b3ba
00000330: 7134 49bd 866c 9cbe 7e5e 1fbe 7442 06bd
00000340: 5a4a cc3d 45fe 853c 3c89 47bc 23d7 2abf
00000350: ae7f 933d c2d7 723c 0d17 093e 94c8 9ebc
00000360: 9e98 153e 362b b93c b7ee cc3d abd3 0a3c
00000370: a151 98bd 2192 32be bdf6 05bd 26f3 67be
00000380: 2607 de3d 6498 9e3e aa41 34be ea98 173d
00000390: a649 333d 1954 053e 8c4f bdbc 5951 473d
000003a0: 1c8f 1f3e 32e3 64be b3bb eebd e7ea 9a3d
000003b0: beba 1d3e 7888 f7bd eae3 243e ee2c bb3d
000003c0: 50c7 e2bd 1218 d9bd 4136 17bd c0aa b7bd
000003d0: a7c9 9bbd 2e29 88bb 1cb1 fd3d 05b8 293e
000003e0: 9106 2dbc a484 023d ca21 5ebe fd3b ae3d
000003f0: 0b10 fabb 9e40 e03e 6d6d f1bd b197 3a3e
0.04888198 -0.004652351 -0.044791225 -0.025722789 0.28395185 0.015269387 -0.07443643 0.18579027
-0.05612143 -0.14033268 0.1001731 0.10328371 0.10538305 0.023209723 -0.0010459039 -0.333118
-0.08346438 0.02650408 0.026284538 0.12188495 -0.050054505 -0.0065837065 0.055476263 0.05019818
-0.02055005 -0.05147121 -0.040748626 -0.14546426 0.10469485 0.015231506 0.13402446 0.14314829
-0.016000936 -0.07518627 -0.07963925 0.032957383 0.044141937 0.09565287 -0.04029476 0.028508516
-0.060176983 -0.099449106 0.024010073 -0.027896842 0.2835966 0.015584568 0.06552278 0.013269177
0.06375435 -0.23243415 -0.11054053 0.038361706 -0.03412654 0.04336089 0.11825212 -0.047117226
-0.24178578 0.021617271 -0.0066280416 0.013727314 -0.0021495475 0.009042031 -0.044793803 0.026410282
-0.07680182 -0.12653269 -0.002129945 0.11993059 -0.02999536 0.13707095 -0.026859872 -0.024354465
-0.04080645 0.06920284 -0.026168779 0.09166704 -0.010208782 0.057275873 0.018041214 -0.014088288
0.012929299 -0.026324425 -0.015151788 -0.049223278 -0.1715972 -0.17170213 -0.032503936 0.040334944
0.02565376 -0.023927677 -0.05273646 0.06401147 0.073038444 0.08627348 0.027251374 -0.1656895
-0.024679517 0.07213075 0.01652389 -0.12072505 0.084071785 0.023443302 -0.06846304 0.0781018
-0.076871194 -0.0058862716 -0.1791377 -0.066935755 -0.058500115 -0.031700693 -0.03255609 -0.0037354697
0.08628517 0.026947977 0.042515043 -0.07928486 -0.014821845 -0.085544184 -0.00920958 -0.020804996
-0.13768232 0.050608 -0.013914071 0.039693225 -0.16648415 -0.033436473 0.008955046 -0.005596664
0.067848966 0.045881227 -0.018041378 -0.004479972 -0.09125368 -0.2485228 -0.03085302 0.020346254
0.050789904 0.037939597 0.062269967 0.0322599 0.00034733966 -0.3520222 0.027383983 0.015344421
0.054630846 0.038298797 0.03144277 0.049314775 -0.05826948 -0.023611471 -0.03035296 -0.020728644
0.020721363 -0.00835265 -0.018739032 -0.013281264 0.006490086 0.0046694125 0.0651781 0.12185429
-0.013300765 -0.032529145 0.007609491 0.06798938 0.0042283842 -0.04994572 0.031393886 0.05206411
0.011224548 -0.036301315 0.48089692 0.015144152 -0.05943451 -0.0035101112 0.35913387 -0.07822366
0.01885721 -0.13872077 0.04672484 -0.10551235 0.033509634 -0.045627847 -0.016655264 -0.031555157
-0.038032 0.020575106 -0.17007302 0.014683859 0.054753024 0.08460052 -0.009800993 -0.011246218
-0.00782017 0.0990573 -0.016552564 -0.071049094 -0.02664484 0.010849157 -0.03955724 -0.042366013
0.021490986 -0.108314924 0.012324611 -0.001371698 -0.049122278 -0.30551547 -0.1556339 -0.03277822
0.09975119 0.016356597 -0.012178715 -0.6673452 0.07202087 0.0148219485 0.133877 -0.019382752
0.14609 0.022603612 0.10006469 0.008473317 -0.074374445 -0.17438556 -0.03270601 -0.22651348
0.10841207 0.3097564 -0.17603174 0.037011065 0.04377141 0.13020362 -0.02310922 0.048661564
0.15581936 -0.22352293 -0.116568945 0.07564335 0.15403268 -0.12086576 0.16102567 0.09139429
-0.11073172 -0.10600294 -0.036916975 -0.08968115 -0.076068215 -0.0041552996 0.123872966 0.16574104
-0.010560648 0.031864777 -0.21692577 0.085075356 -0.007631307 0.437993 -0.117884494 0.18221928

encoder.2.bias f4 [100]
00000000: 18af 5b3e 66de 233e 2627 313b 2f96 56be
00000010: 0971 183d 5f44 1bbe 8de1 b43e 329c 9abe
00000020: 112c 0abd fc20 24be 434e 8a3d 9e24 b9be
00000030: a22e bbbc a261 223d 223d e73e 14ca d83e
00000040: eedb fa3d ef6b fcbd b93f cf3e 2b98 5abe
00000050: f71b 6fbe f4c0 47be 22ee d8bc b4a7 8d3e
00000060: ba62 f9be d127 253d fb5d dd3e 9130 e73d
00000070: 7e63 50be d72b 58bd 83a7 bfbe a696 02bf
00000080: ec33 233f cb07 5d3d 96ee 52be e5fb 53be
00000090: f4b3 83bf 5cbe 56be 0d06 44be d9cd 58be
000000a0: b375 ac3d 3378 77be bdb5 06bd e2f4 f2bc
000000b0: 1494 15bf 0f7e 9e3e 0c5b 833c 09f0 343e
000000c0: e8c8 21bf cd08 2bbe ebde 34bf 01a4 313e
000000d0: 614e 633d 30f7 b0be 8ed2 0dbe 68ca 52be
000000e0: 74dd be3e cfd7 f3bd ecfd c53e c402 53bd
000000f0: bbec 273d b033 ae3d f2d1 263f ab01 db3d
00000100: 6e13 8dbe a2cd 24be 38e1 123e 5e92 fb3c
00000110: e9c9 55bd 6d9e bbbd df5d 8cbc 8148 e13c
00000120: 1bf8 76bb b4fa 86be 3224 aebb 549a b13d
00000130: 1483 453d c16f f9be 51e4 77bd 07d3 933e
00000140: 0744 5ebd 6aed 303e 38c8 643d 5159 40bf
00000150: f6b8 86be 6d43 0f3c 672a a63d a88a 07bd
00000160: 5301 a93e 2f43 0cbd 72ea 54bd 50b8 0cbf
00000170: 51c9 b3bc 6088 8dbe 9f12 043e 547b ab3d
00000180: 4e23 313e 6ced f5bd 87c4 37be 6c08 b13e
0.21453512 0.16002807 0.002703139 -0.20955728 0.037217174 -0.151628 0.35328332 -0.30197293
-0.03373343 -0.16028208 0.067532085 -0.3616075 -0.022849385 0.03964389 0.45163828 0.42341673
0.122489795 -0.12325274 0.40478304 -0.2134711 -0.23350511 -0.195072 -0.026480738 0.2766701
-0.48708135 0.040321175 0.43235764 0.1128856 -0.20350453 -0.052776184 -0.3743249 -0.5101112
0.637511 0.05396251 -0.20598826 -0.20701559 -1.0289292 -0.20971054 -0.19142933 -0.21172275
0.08420887 -0.24166946 -0.032888163 -0.029657785 -0.58429074 0.3095555 0.016034625 0.17669691
-0.63197184 -0.16702576 -0.70652646 0.17347719 0.05549467 -0.3456359 -0.13849851 -0.20585024
0.3727833 -0.119063966 0.3867029 -0.05151631 0.04099725 0.08505952 0.651641 0.106936775
-0.27553886 -0.16094068 0.14343727 0.030709442 -0.05219451 -0.09161077 -0.017134605 0.027500393
-0.0037684503 -0.26363146 -0.0053143734 0.08672014 0.04822071 -0.48718074 -0.060520474 0.2887194
-0.054264095 0.17278066 0.055855006 -0.75136286 -0.2631299 0.008744103 0.08113556 -0.033091217
0.33008823 -0.03424376 -0.051981397 -0.5496874 -0.021946581 -0.27643108 0.12897728 0.08373132
0.17298624 -0.12008175 -0.17946063 0.34576738

encoder.4.weight f4 [50, 100]
00000000: b1d7 85be 371f a03d b285 38bc 2b74 1abe
00000010: 5a90 1c3c a893 29be 61bc d43d 22f2 72bd
00000020: 1df8 89bd 18f8 24be 72e5 35bb 798c aa3d
00000030: f977 a03e 7dd7 8ebd 4ea1 43bd d0c8 df3c
00000040: 402c 0f3d 1cc2 973d d23c d23d df9e 7e3b
00000050: 7530 ccbd 7107 37ba 4758 b1bc a611 dc3d
00000060: 6c78 b33d daf7 0f3e a985 b03d f844 ee3c
00000070: 92b1 a83d 9df9 33bc ad05 fd3d f245 5b3c
00000080: bfc1 0bbe 8f11 0f3e 5e47 2d38 11a4 f93c
00000090: aed5 87bd 2573 a0bd ab7f 72be 1584 8c3b
000000a0: 500a 62be b1c7 2b3d f4eb 96bb 30d4 d73d
000000b0: 2e2b 26bd 1394 a63c c0bb 623d 7df8 cabd
000000c0: 5729 25bd b89f 02be b151 16bd 514e 0e3e
000000d0: 39e8 5d3d 4379 0cbe db4c 293d 2bad 2d3d
000000e0: a43e a33c 23d8 693d 87a6 e3bd d0aa 683d
000000f0: 4806 b53d 5fee 2ebd 0cf5 6abd c556 fcbc
00000100: fbca fb3c ff30 e43d f1db 2abd 823b 483e
00000110: 41c4 66bc fea2 a8bc 5270 5a3a 3bf3 833c
00000120: bb54 95bd a687 50bd 7ca2 e63d 8cab a4ba
00000130: 30a5 6f3b 19d2 073d 4315 e1bc dc57 aa3d
00000140: 979c 2bb9 4444 e23d a583 b33c be33 943d
00000150: 5c21 8cbd a25e 29bd c730 ff3d 43aa e3bd
00000160: b9a6 cc3c a447 abbd ed4e af3c 7e52 4ebd
00000170: 5a2c bebd 98ed 003e 1d07 87be e6fe c63c
00000180: 1b5e ffbc b4ee 40bc 6241 5dbd f2b5 843d
00000190: c024 6439 7dc9 d73c 998d 31bd cb89 7abc
000001a0: c92c 6cbc e8e8 393d a754 95bd 6781 58bc
000001b0: e85f 86bc 41bf 7c3c 78de 10bc 7227 793c
000001c0: 90bf 2f3d b2a4 5e3d a735 3e3d 06e6 d93c
000001d0: 00b4 3abc a023 24bc 2be2 86bc ed40 8bbc
000001e0: 389b e03c 101c 1dba 8bc1 373d dd22 42bd
000001f0: 09eb 09bd ac44 e93c 1cbf 933c 78bb 0fbd
00000200: 1348 75bc 4d65 30bd 43a7 913d d1e8 6d3b
00000210: 41a3 1e3d 4103 a9bc a744 53bd 9b0c 41bd
00000220: a138 01bc 6199 49bc 9c79 853c 85c0 94bc
00000230: 0356 043c 3034 973b 8104 24bd 9a7f 393d
00000240: 1ac5 10bd 489a beba 1617 70bd 0350 d03c
00000250: 9ed9 82bc 2a94 58bb edfb 34bc 966f 0bbd
00000260: d602 ddbc 7232 0ebd 5bb3 083e 504b ae3c
00000270: ab8e 7ebd 4cdc 393c 713d 193c 36ed 6e3d
00000280: 3944 313d dfb8 f03c 1681 133b 5df1 41bc
00000290: f528 c2bb fe96 5b3d 37d5 31bd d8cf 823d
000002a0: 0108 bdbc cad5 52bd 6cfe 6dbd 3ddd 0b3b
000002b0: 291d 9abc 837f 063d 5ef8 e2bb f830 f7bc
000002c0: 6d9f 293d 88a8 c1bc a0f8 25bc 5aca a73b
000002d0: 8236 5bbd f1f2 443d 28de 3bbc c220 3e3d
000002e0: ccbc 693c dee8 823c d94e cebc bb9e 4a3d
000002f0: ed09 f4bc b9d9 bc3a 9a37 a4bd 6ae9 ebbc
00000300: 9b0f 953c 7a07 033d 0593 383d 1af6 0b3b
00000310: 3b5c afbb 3e93 aabc d2ba 39bb 7803 18bd
00000320: f24f 1c3b 0ed6 85bc 8f55 14bc 148b bc3d
00000330: 150a 633c 8185 2a3d 3a97 f53c 0d96 12bd
00000340: 627d 24bd b6b6 acbc c48b 263e 54ce 8e3c
00000350: 50f6 8abd d1c9 753d cf5a b1bd 5d3f a23b
00000360: 8840 30bd 0702 143d 7ad6 a4bd eb1e 163c
00000370: 2411 1cbe 3d21 af3b af5e 5fbd cdad d9bc
00000380: aeea 553d 0573 183d 5995 fdba 89c1 08bd
00000390: 1cee 263d 7ab9 9dbb f389 77bd 0e9a 583c
000003a0: 0070 b03c 5b11 f2bd 4582 593d 8f4e 80bc
000003b0: bde5 2fbb 42c1 b83c 6f07 c5bc f297 743d
000003c0: db4c 9a3c b053 01bd 7864 1c3b 919a 713d
000003d0: 462e 31bc 04e7 68bd e458 853b 90a6 353d
000003e0: d065 6fbd 34fa 053b abf2 113c f10d 9cbd
000003f0: a679 b8bb f233 babd 38ad 35bd ffbc ca3c
-0.26141122 0.07818454 -0.011262344 -0.15083377 0.0095559005 -0.16560233 0.10387493 -0.059312947
-0.06736777 -0.16110265 -0.0027755168 0.08327574 0.31341532 -0.06974695 -0.047761254 0.027317435
0.03495431 0.0741007 0.10265507 0.0038852019 -0.0997018 -0.0006982005 -0.02164854 0.10745554
0.08763203 0.14059392 0.08619244 0.029085621 0.08236994 -0.010984805 0.12354598 0.0133833755
-0.13648127 0.13971542 4.131288e-05 0.03047374 -0.06632553 -0.07834462 -0.23681514 0.0042882063
-0.22074246 0.041938487 -0.0046057645 0.105385184 -0.040568523 0.02033428 0.055354834 -0.09910677
-0.040322628 -0.1275624 -0.036699 0.13897063 0.054176543 -0.13718133 0.04133306 0.042401474
0.01992733 0.05709089 -0.11115747 0.056803524 0.08839089 -0.042707797 -0.0573626 -0.030803094
0.030736437 0.11142158 -0.04171366 0.1955395 -0.0140848765 -0.020585533 0.0008332777 0.016107192
-0.07291552 -0.050910614 0.1126146 -0.0012563332 0.0036566965 0.03315935 -0.027475959 0.08317539
-0.00016366165 0.11048177 0.021913359 0.072364315 -0.068423 -0.041350015 0.124604754 -0.11116459
0.024981843 -0.08363274 0.02139994 -0.05037164 -0.09285803 0.12590635 -0.26372615 0.024291467
-0.031172803 -0.011775661 -0.054017432 0.06480016 0.00021757465 0.026341194 -0.04334793 -0.0152916415
-0.0144149745 0.045388132 -0.07291537 -0.013214446 -0.016403154 0.015426458 -0.008842103 0.015207158
0.042907298 0.054356284 0.046437886 0.026598942 -0.011395454 -0.010018259 -0.016465267 -0.016998732
0.027417764 -0.00059932563 0.04486231 -0.04739653 -0.033671413 0.028475128 0.018035464 -0.035090894
-0.014970797 -0.043065358 0.07111981 0.00363021 0.03872991 -0.020631434 -0.051579144 -0.047131162
-0.007887037 -0.012304635 0.01629334 -0.018158207 0.008077147 0.0046143755 -0.040043358 0.045287706
-0.03534422 -0.0014541829 -0.058615766 0.025428778 -0.015972909 -0.0033047297 -0.011046392 -0.034041964
-0.026978891 -0.034716077 0.13349669 0.021276146 -0.062147778 0.011344027 0.009353028 0.05833169
0.043277953 0.029385028 0.002250736 -0.011837331 -0.0059252926 0.053610794 -0.04341623 0.06387299
-0.023075106 -0.051473416 -0.058103964 0.0021341585 -0.018812733 0.03283645 -0.0069265803 -0.030174717
0.041411806 -0.023639932 -0.010130078 0.0051205577 -0.05351878 0.04808325 -0.01146654 0.04641796
0.014266204 0.01598018 -0.025184082 0.049467783 -0.02978989 0.0014408148 -0.08018418 -0.028797824
0.018195918 0.031989552 0.045062084 0.0021356405 -0.005351571 -0.020822164 -0.0028340113 -0.037112683
0.0023851362 -0.01633742 -0.009053602 0.092062145 0.013857384 0.041631225 0.029979337 -0.03578763
-0.040158637 -0.021083217 0.16264254 0.01743237 -0.06785262 0.06000692 -0.086598985 0.004951401
-0.04303029 0.036134746 -0.08048721 0.009162645 -0.15240914 0.0053445385 -0.054533657 -0.026572132
0.05222576 0.037219066 -0.0019346877 -0.033387695 0.040754423 -0.0048133703 -0.060434293 0.013220323
0.02153778 -0.118197165 0.05310275 -0.01566246 -0.0026839816 0.02255309 -0.024051396 0.05971522
0.018835476 -0.03157395 0.0023863595 0.058985297 -0.010814255 -0.05686094 0.0040694345 0.0443483
-0.058446705 0.0020443322 0.008907954 -0.076198466 -0.005629736 -0.09091939 -0.044354647 0.024748323

encoder.4.bias f4 [50]
00000000: e07e f13d c3ec 4bbd 5cf3 a4bd ab37 e9bd
00000010: 4248 963b 6ece 8f3a 9b31 0dbd 28c2 8d3d
00000020: 988a 453e 0d31 a3bd 02cd acbe 6bd8 1abe
00000030: 8440 c53c 59b8 1e39 ccf4 8d3d 37c7 11bd
00000040: 3475 653d dada df3d de1b 93bd 3ee6 433e
00000050: a877 0e3d 95c3 59be 9803 8c3d 5248 b5bd
00000060: ce79 cabd 88e8 5a3b 6223 b43d 3be8 013e
00000070: 9f80 e33d ee2c 66bd 4620 6bbe dfa9 adbc
00000080: 797c 26bd 74b4 d13e 10a2 25be 2e50 d33d
00000090: c8bb 00be 4f1d 36be 1b8a 1dbd f8c6 babd
000000a0: a739 543d f8a4 dd3d 707e 0abe b9cc 2abd
000000b0: 9ecf 11be 533b 8bbe 9bac c83d 651d 1b3d
000000c0: 4d44 55bd 8368 a6be
0.117917776 -0.04978634 -0.080542296 -0.11387571 0.0045862505 0.0010971555 -0.034471136 0.06921798
0.1929115 -0.0796834 -0.3375016 -0.1512162 0.024078615 0.00015136729 0.06931457 -0.035590377
0.056019977 0.109304145 -0.071830496 0.19130799 0.03478208 -0.21266015 0.06836623 -0.08851685
-0.09886514 0.003340276 0.08795811 0.12686245 0.11108517 -0.056195192 -0.2296153 -0.021199165
-0.04064605 0.40957987 -0.16175103 0.103180274 -0.12571633 -0.17784618 -0.038461786 -0.091199815
0.051812794 0.10822481 -0.13524795 -0.041699145 -0.14239356 -0.27193698 0.09798547 0.03786983
-0.05206709 -0.3250161

encoder.6.weight f4 [32, 50]
00000000: 50de 573e 7c6d 5b3c 745c 6bbc 326a 2dbe
00000010: a9da 603c 0b3d 313c 941e 463b ea08 ef3d
00000020: b5db f6bd 91a9 66be b2b4 7e3d 3637 0dbd
00000030: 4d19 8dbd 3449 6d3c 0285 3e3c 2af9 01bd
00000040: 5720 b0bc 47de cf3c 9e29 3a3c a755 c83d
00000050: c4b9 9bbe d836 283e e47c 3d3d 44d5 713e
00000060: 3220 463d 1e45 d9bd 642b e1ba 19d8 773d
00000070: 8ade 3c3d 12e8 753c 0ab2 1c3e af56 053c
00000080: 3f36 95bc 2163 a6bd 93d0 d6bb 0bbf b03d
00000090: 12f7 8c3c 1936 0bbd 0e7f 823d 77d8 aabb
000000a0: 5925 ccbc 87a9 be3d 2f06 f03d 16c1 c6bd
000000b0: 754b 99bc b9ae 2f3d 2625 a2ba 4813 b83b
000000c0: 0ec0 b03b 8564 d73d 7b8c 0a3e 9912 e2bb
000000d0: 8a05 5fba be78 943c 81f3 1dbc 63a9 2abc
000000e0: 1612 5bbb a794 c23d 4500 f53d df80 173e
000000f0: 19fb 07be 1b56 843d fdab 053d 17e7 ea3b
00000100: 754d c5bd a6aa ccbc cf88 a93c e40b 613c
00000110: 8ba3 1a3c 9b78 a33e 2281 063c cc31 a4bd
00000120: a617 2a3d 2809 023e cf81 bdbd 33f5 dbbd
00000130: 4f5f 33bc bbe0 9bbd 2ec8 45be f6ea 46be
00000140: 202a c3bb 6503 49bb 0208 0abc b8b2 19be
00000150: ccc1 0b3c 59cb 5dbd a2f2 06bd 962a f23b
00000160: 4743 b4bd dad5 23bc 2047 2e3e 46ec 903d
00000170: 306f 92bd 2749 abbd 2328 0fbd 9c05 59be
00000180: cf08 5b3d bb84 c43b 8757 0fbb ad66 5d3e
00000190: fa96 2f3d 89a8 c73b bcf3 96bc 06c8 12bd
000001a0: a435 38bc 87fe 203c 98f0 37ba 5f37 0e3c
000001b0: 9153 1c3e 08ca 28be 7ed3 adbc 45e7 a8bc
000001c0: c412 973c 0042 82bb 9e14 8d3c 61b7 f33c
000001d0: 70db 38bb c310 d93b ec45 bdbb 4347 c83d
000001e0: e0a3 a6bc 962a b5bc ae1f acbd c368 bcbd
000001f0: 47f9 6e3c 826e 7d3c c352 bb3b 1852 cfbd
00000200: 81c5 033d 4249 c43c 0ec9 a4bd 45c1 0bbb
00000210: 1832 48ba 1eb9 42bc 53b9 04bd b269 9f3d
00000220: ac57 30bc ff0b 08bf 6b9b e53d 0023 d5bb
00000230: de10 46bd e0ed a03d a6df 2bbd 8403 563d
00000240: a46f 5abc cb96 a53e 0334 993b 6524 f03b
00000250: 8461 d43a 87c2 a0bd df39 173e 1914 9c3c
00000260: fc4e a6bc 0e53 ecbc 70ee 453c 081e 2a3b
00000270: 7c32 76bc 236a 063c e453 03bd 2ece bc3d
00000280: 39a9 66bd e8c7 0d3d 9ff9 603c ef83 443b
00000290: 8a58 59bd a1f9 a13e 5d75 a1bc 015c 97be
000002a0: a650 533b 3973 813c 2216 7d3d a522 ce3c
000002b0: d0a8 9abd 5f99 1e3e 17cf f43d 4235 f13d
000002c0: e6a8 23ba 4db7 ce3d 3a50 9f3d 9ad5 a6bc
000002d0: 9ac6 ea3c 81fa 243b 128b 643c 45dc 003e
000002e0: 2ae1 91bc 2616 873e 807e 7fbc 2724 98bd
000002f0: 95e6 c5be f7b4 2cbc fa05 50bd c134 f6bd
00000300: 87b5 2abd a82f e0bd dce5 9f3d fa66 493c
00000310: 32d5 fd3c ba9f aabb 995b 09bc 5ed9 1b3d
00000320: 11b0 b33d 910b 7a3c ac69 4bbd df39 a23d
00000330: 2687 95bb aefa 93ba 82c8 a93a ecef 3a3c
00000340: 86a5 773c 1770 8cbd ca1a db3c 1b57 19be
00000350: c45b 473d 6189 a03c a309 3abe 217f 833c
00000360: 055a 1b3d 7c9b 1cbd 8501 39bb d30d 913c
00000370: bbc6 6cbe 7fa5 8d3d 723b 263d 6e4e a2bd
00000380: 65cb ba3d 5a07 273d 1d1e 4cbb eb74 c2ba
00000390: c368 bdbc 5307 58be 8552 16be c6c0 8abc
000003a0: 8e8b e639 a533 d33c bffc 2fbe cb10 82be
000003b0: e9c5 993c 982a ed3c 30b9 8dbe 7d0c dd3b
000003c0: cdf4 31be af67 55bb 19df 8dbc 89b4 923e
000003d0: 8ebf babd 860e 1cbd 76e3 ac3d a595 813c
000003e0: 2322 cb3b 2675 7b3d 846f 8b3c 4e6d fc3b
000003f0: c385 b33d dcbc 2dbd 1d3c abbb ac2e 533b
0.21080899 0.013392802 -0.014365304 -0.16935042 0.013724008 0.010817776 0.0030230628 0.11671622
-0.120536245 -0.22525622 0.062184043 -0.03447648 -0.06889591 0.014482785 0.011628391 -0.031731762
-0.021499796 0.025374545 0.011362461 0.09781962 -0.30415165 0.16427171 0.046261683 0.2361651
0.048370548 -0.10608886 -0.0017179069 0.06050882 0.046110667 0.015008943 0.15302292 0.008138343
-0.018214343 -0.08124376 -0.0065556257 0.086301886 0.017207656 -0.03398714 0.0637189 -0.005213793
-0.024920153 0.093096785 0.117199294 -0.09704797 -0.018712739 0.042891238 -0.001237069 0.005617533
0.0053939885 0.105172195 0.13530152 -0.0068991897 -0.00085076 0.01812398 -0.009640575 -0.0104163615
-0.0033427528 0.095010094 0.11962942 0.14795254 -0.1327938 0.06461736 0.032634724 0.0071686613
-0.096339144 -0.024983715 0.020695118 0.013735745 0.009438406 0.31927952 0.008209499 -0.080173105
0.04152646 0.12698805 -0.09253275 -0.107401274 -0.010948016 -0.07611223 -0.19314644 -0.19425568
-0.0059559494 -0.003067219 -0.008424761 -0.15009582 0.0085300915 -0.054149006 -0.032946236 0.0073903305
-0.08801895 -0.009999717 0.1701932 0.070763156 -0.071501136 -0.08363562 -0.034950387 -0.21193546
0.053475197 0.005997268 -0.0021872239 0.21621199 0.04286859 0.006093089 -0.018426768 -0.03583529
-0.011243258 0.009826309 -0.0007016747 0.008680194 0.15266253 -0.16483319 -0.021219011 -0.02061809
0.018441565 -0.003975153 0.017221745 0.029750528 -0.0028206967 0.0066243126 -0.0057761576 0.09779217
-0.020341814 -0.022115033 -0.0840448 -0.09199669 0.0145858 0.015468242 0.005716653 -0.1012308
0.032170776 0.023960713 -0.08046161 -0.0021324914 -0.0007636859 -0.011884956 -0.0324033 0.07783832
-0.01076309 -0.53143305 0.11211284 -0.0065044165 -0.04835593 0.07857871 -0.041961335 0.052249447
-0.013332281 0.32341608 0.0046753897 0.0073285573 0.0016203378 -0.07849603 0.1476817 0.019052552
-0.020301335 -0.028848197 0.012080774 0.0025957841 -0.015026685 0.008204016 -0.032062426 0.09219013
-0.056313727 0.034614474 0.013731389 0.0029985865 -0.053062953 0.31635764 -0.019709283 -0.2956238
0.0032244115 0.015802013 0.061788686 0.025163004 -0.0755173 0.15488194 0.11953562 0.11777736
-0.00062431244 0.100935556 0.07778974 -0.020365525 0.028659154 0.0025173726 0.013949173 0.12584026
-0.017807562 0.26384085 -0.015594125 -0.074287705 -0.38652483 -0.010541192 -0.05078695 -0.12021781
-0.041677024 -0.1094659 0.07807514 0.012292618 0.030985449 -0.005207029 -0.008383655 0.038049094
0.087738164 0.015261547 -0.049661323 0.07921194 -0.00456323 -0.0011289918 0.0012953433 0.011409741
0.015115147 -0.06857317 0.026746172 -0.14974634 0.0486715 0.019596757 -0.18167739 0.01605183
0.037927646 -0.03823422 -0.0028229665 0.017706787 -0.23122685 0.069163315 0.040584035 -0.079251155
0.09120826 0.040778495 -0.0031145879 -0.001483587 -0.023121243 -0.21096544 -0.14679916 -0.016937625
0.00043972995 0.025781462 -0.17186259 -0.25403437 0.018771129 0.028950974 -0.2768035 0.0067458735
-0.1737854 -0.003256302 -0.017318295 0.28653362 -0.091185674 -0.038099788 0.08441822 0.015818426
0.006199138 0.06139102 0.017020948 0.00770346 0.087657474 -0.04241644 -0.005225672 0.0032223864

encoder.6.bias f4 [32]
00000000: 286d 00bd 832f 863d 1194 9fba aa5c adbc
00000010: 0183 f9bc 0309 0bbd 4ab2 cb3c 4d0e babc
00000020: 5f5a 98bd d041 a0bd 337a a2bc 37d0 22bd
00000030: 5c7d 6e3c 659c 9d3c 01e5 a0bd 926a a0bd
00000040: da37 4ebc 54fd b9bc 075a 6ebd 6cfc 9fbb
00000050: 7de2 6fbd 003b 2dbd e988 07bd ef16 8a3d
00000060: 96b9 a23b 838d d9bc 712f 53bd 2964 5dbd
00000070: 145e 833b 8f0a 98bd 9278 d5bc 6ab0 263d
-0.0313541 0.06552031 -0.0012174865 -0.02116235 -0.030457975 -0.03394414 0.024865288 -0.022711897
-0.07439112 -0.07825053 -0.01983366 -0.03974935 0.014556255 0.019239614 -0.07856179 -0.07832827
-0.012586558 -0.022703804 -0.058191326 -0.004882386 -0.058565605 -0.042292595 -0.033089552 0.067426555
0.004965971 -0.026556736 -0.051558916 -0.0540506 0.0040090177 -0.07423889 -0.026058469 0.040695585

decoder.0.weight f4 [50, 32]
00000000: 3a28 cdbd 99df 413d 6727 b7bb 39ad 053d
00000010: 421f a33d c5c9 603d 8022 34b8 7767 25be
00000020: 6d21 4b3e 9290 f9bc b39d 8fbd 66a0 0fbe
00000030: 2b13 873c b58e a43e 57ff 8abd 8d07 b0be
00000040: 83b4 e23d 5b7e 02be 9593 a63d ff5d 9a3c
00000050: c254 883d dc90 823d 61fe 2e3e b0c3 883c
00000060: 86f8 683d 5add 003c 9340 e93d 8391 fd3d
00000070: 20c7 5cbd 2327 433d 3704 34bd 5810 d63d
00000080: e0dd db3d f948 ef3d 92d7 67bd e9c1 223e
00000090: 6290 47bc 44e8 863d a044 4b3e 11d5 af3d
000000a0: 8788 abbe f4f8 e5bb fa03 bebd 55d6 893c
000000b0: 1645 3cbd 9030 7cbd 3121 fcbb 5de5 333e
000000c0: 6eac ca3d f405 e8bd a4af 313d 8878 49bd
000000d0: b246 be3d a7b8 3e3e 4277 953d c1ac 0a3e
000000e0: 7243 1fbe 0730 0dbe 5632 fc3d 9bbf 533d
000000f0: af77 96bd 6d94 42be c1bf 20be 7734 393e
00000100: 9cd8 16be 629a 3abe 437e 0c3c 623e 263e
00000110: bf3c 95bd c1ab 7fbd a216 3bbd bedf d4bd
00000120: 894b a13d 42f6 cd3d 818e 1cbd 2577 92be
00000130: 7574 233e afb9 49be e87a 0bbd 59e0 213e
00000140: d352 633d 0f58 f0bd c140 bebd 2da6 7a3d
00000150: fa98 2d3d 4dee 1fbe 9928 b9bb 8118 9a3c
00000160: 8de8 e3bc 226e afbd ee33 55bc aade ee3d
00000170: 1e9a 6fbe 82c5 163e 14f2 833d 203b c9bc
00000180: 537d 33bd 6eb7 233d 456b 9ebd 15e3 1d3e
00000190: 7984 81bd 23a8 43be ff34 ed3d 5013 803e
000001a0: c419 d43d 95ad 4a3d 2781 bebd 60e1 a03c
000001b0: 8b15 c43c 758e 153e 558b b23c 1d8e d6bc
000001c0: f332 8e3d 888c 67be 7325 43bd 2a05 183e
000001d0: 8136 173e affa 6fbd 65a5 25be 2aa8 4f3d
000001e0: 6025 1d3d 1cb8 623c fd2d 6ebe 8a7f d13d
000001f0: f362 263e 53dd 02be 1c68 303d 0c12 c63d
00000200: ec79 163c 207a 7a3d 7da5 f1bd a259 1b3d
00000210: 5e3b 4d3c 5969 893d e4ee bbbc 97b7 8d3e
00000220: f5fc 55bc 39f0 973d cd84 953b bccc 4cbd
00000230: 35d8 bfb9 12d6 eabd 1a03 e7bc 9100 2dbd
00000240: b71d 163d 97a4 9ebd 2cc4 553d 42c1 04be
00000250: 7842 6cbd cae5 2a3d 51a2 bf3d c142 20bf
00000260: 607d fdbc 0aac 96bd 47f1 803d 6175 b83d
00000270: 71f3 2fbd c04b c73c 83c6 643d 8fe6 21bd
00000280: 678a 38bc edb7 c23d c4a6 2ebd 0263 033d
00000290: e7c4 ec3c 7fef 02be e26c e4bc a35e 193d
000002a0: beb3 7f3d 17a0 5d3d e2d5 3d3d 2823 dcbd
000002b0: f3ea a83b 22da 6dbd 7727 d83d 26ee c9bb
000002c0: 5a8e af3d a335 4abc 9230 8d3c 7606 e73c
000002d0: 0f7f 26bd 9635 75bd aeca b03c 34bc 663d
000002e0: 1daf 1bbd 44ac c13b 6618 46bd 6640 d2bb
000002f0: e3ae 2abd 5eca b4bd 66c1 cabb 726a 4a3d
00000300: b1c1 bbbd b51a 7cbe f97c b0bd cb53 8cbd
00000310: d488 0aba ec40 e23d 8731 2b3e aa85 a43e
00000320: 94e6 153d f81a 0439 f84e 203c 00f7 e2bc
00000330: 057f 153c 5dda e43d bc3b a63d 38a2 8b3d
00000340: 3d82 0dbd 5a72 0b3e 7c6f 88bd 5232 aabe
00000350: 5cd4 033e e2a3 0c3d 8b7a 8abd 7de1 e03d
00000360: 5e9b d33b 614b 563d 74f2 97bd 5211 9d3d
00000370: 5947 a83c 0129 b13e 3a95 89bd e165 8f3d
00000380: 45cb 253d cf36 e9bc 160c 0fbd 76d6 03bd
00000390: 601d e53d df72 6ebd 6cf0 39bc f27c 833b
000003a0: 78a2 57bc a339 09bc 9539 c63c 13c5 58bd
000003b0: a833 833c 5ec3 4cba 6274 dcbc 375b 263d
000003c0: 76e5 f7bc 6d11 c039 8329 13bd dfe1 fd3b
000003d0: 5d94 16bd d91f 083b 646f 85ba ad44 cb3b
000003e0: c05a eabd 1814 2b3d 81f7 3c3c 7192 963d
000003f0: 3593 1ebd 5e84 873b 5226 973d 6a8b 6cbc
-0.10017438 0.04733238 -0.005589414 0.0326359 0.07964946 0.054879922 -4.2947475e-05 -0.1615275
0.1983697 -0.030464444 -0.070125006 -0.14026031 0.016488632 0.32140127 -0.067869835 -0.3438076
0.11069586 -0.12743513 0.08133618 0.018843649 0.06656791 0.06375286 0.17089225 0.016694874
0.056877635 0.007865274 0.1138927 0.1238127 -0.053900838 0.047644746 -0.043949332 0.10452336
0.10735679 0.1168384 -0.05660207 0.15894283 -0.01218042 0.0658727 0.19850397 0.08585561
-0.335026 -0.007018203 -0.09278102 0.016825834 -0.045964323 -0.06156975 -0.0076943864 0.17567964
0.098961696 -0.113292605 0.043380395 -0.049187213 0.09290828 0.18625127 0.07298137 0.13542463
-0.15553072 -0.13787852 0.12314288 0.0516964 -0.073470466 -0.19001932 -0.15698148 0.1808642
-0.14731067 -0.18222955 0.008575025 0.16234735 -0.07286977 -0.062419657 -0.04567588 -0.10394238
0.07875735 0.100567356 -0.03822184 -0.28606525 0.15962394 -0.19699739 -0.03405276 0.15808238
0.05549891 -0.11735546 -0.092896946 0.061193634 0.042382218 -0.15618248 -0.0056505916 0.018810512
-0.02782085 -0.08565928 -0.013012869 0.116635635 -0.23398635 0.14723781 0.06442657 -0.024564326
-0.04382069 0.039969854 -0.07735304 0.15418656 -0.06324095 -0.19107108 0.11582374 0.25014734
0.10356477 0.049481947 -0.093019776 0.019638717 0.023936054 0.14605124 0.021794954 -0.026190812
0.069433115 -0.22612202 -0.047643136 0.1484572 0.14766885 -0.05858868 -0.16176374 0.050697483
0.03836572 0.01383784 -0.2325973 0.10229404 0.16248684 -0.12779741 0.043068036 0.09671411
0.009184342 0.061151624 -0.117991425 0.037927277 0.012526361 0.067095466 -0.02294106 0.2767913
-0.013060798 0.07418866 0.00456295 -0.049999937 -0.00036591446 -0.11466612 -0.028199721 -0.04223687
0.036649432 -0.07746237 0.052189037 -0.12964347 -0.057680577 0.04172305 0.09357131 -0.6260186
-0.030943573 -0.073570326 0.0629602 0.09006763 -0.042956773 0.024328113 0.055853378 -0.03952652
-0.011263466 0.09507737 -0.04263951 0.032076843 0.028902484 -0.12786673 -0.02788395 0.03744377
0.062427275 0.05410775 0.046346553 -0.10748893 0.0051549613 -0.058069356 0.10554402 -0.0061624227
0.08572073 -0.01234189 0.017235074 0.028201323 -0.040648516 -0.059865557 0.02158102 0.05633183
-0.038008798 0.0059104282 -0.048363112 -0.0064163683 -0.04167069 -0.08827661 -0.0061876057 0.04941792
-0.09167803 -0.24619563 -0.08617587 -0.0685192 -0.0005284671 0.11047539 0.16718112 0.32133228
0.03659685 0.00012598548 0.009784453 -0.02770567 0.009124522 0.11174462 0.08116862 0.0681805
-0.034548033 0.1361784 -0.06661889 -0.33241516 0.12873977 0.03433598 -0.067616545 0.109805085
0.00645773 0.05231798 -0.07419291 0.07669319 0.020541834 0.34601596 -0.06717916 0.07001854
0.040477056 -0.028468518 -0.034923635 -0.032186948 0.111872435 -0.05821502 -0.011348825 0.0040126974
-0.013161294 -0.008375558 0.02419738 -0.05292232 0.016015843 -0.00078110944 -0.026910964 0.040614333
-0.030260783 0.00036634077 -0.03592826 0.007747873 -0.036762584 0.0020770936 -0.0010180292 0.006203255
-0.114430904 0.04176721 0.011533619 0.0735215 -0.038714606 0.0041356524 0.07380356 -0.014437536

decoder.0.bias f4 [50]
00000000: 22ed 323d 9e84 ab3d b1c8 353d 2308 34bd
00000010: de21 5dbc 6f4c 3bbd 1a53 0cbe 5bb0 a9bc
00000020: 7041 383c f716 39bd e9c2 2bbc 2947 0ebd
00000030: a12d 08be 79a9 28bc dee3 a93c c54a 17bd
00000040: e5e4 54bd d0a8 77bb 7d0f 5fbd 74ce 963c
00000050: 5322 97bc b250 20bc bc86 b5bc 295c 653b
00000060: 64a1 713d 93bb 36bd 5c75 363d 989b 433b
00000070: 2cf7 30bc 811e 68bd d00e a03c 0890 4c3c
00000080: 64d0 463c 3c93 8dbd 1965 50bd 3ae3 4bbc
00000090: f745 0fbe c1e7 24bd 838e afbc 22b3 b0bc
000000a0: 01e1 b43c 07a2 f3bc 659c 38bd 2645 d53c
000000b0: 2a7a b8bc 6923 8dbc 4063 4ebd bf64 2bbd
000000c0: a684 003d 08d5 89bd
0.04368318 0.08374904 0.044380847 -0.043953072 -0.013496844 -0.04572719 -0.13703576 -0.020713976
0.01124607 -0.045187917 -0.010483482 -0.034735832 -0.13298656 -0.010294312 0.020738538 -0.03693654
-0.051976103 -0.003778983 -0.05445813 0.018408991 -0.018448984 -0.009784864 -0.022158973 0.0034997559
0.058991805 -0.04461248 0.044545516 0.002984738 -0.010801118 -0.056669716 0.019538313 0.012485512
0.012134645 -0.06912848 -0.050877664 -0.012444312 -0.13991533 -0.04026008 -0.02143026 -0.021569792
0.022079946 -0.029740347 -0.045071024 0.02603395 -0.02251919 -0.017228799 -0.05038762 -0.041844126
0.031376503 -0.067300856

decoder.2.weight f4 [100, 50]
00000000: bd49 833d e511 c83d 0823 a7bd 23f2 713c
00000010: 5273 bbbd 1698 1abd e6f6 153e d88b 01bd
00000020: acf5 443d b54d a5bc e436 d23d deb0 5ebc
00000030: 69c4 d4bb 1ac8 843c 9e8d cbbc 03b1 3bbd
00000040: 4797 cf3d 84f8 93bd 62fa d53d 9500 43bd
00000050: f64f f838 aa5c 973d 69f0 213c f914 4ebc
00000060: 226a 81bb 1420 0d3d bf73 e43d 732b 553d
00000070: 3aea e53d 03d1 983d 7fc2 523d 40b3 113e
00000080: e530 32be d87d 1bbd 04d6 44bc 9de6 1f3d
00000090: 1154 92bc bef1 90bd fcdb e43c 6e36 9cbc
000000a0: 5ec3 6bbd 9618 51be 7f7e 4c3d 4e63 023d
000000b0: a85a 843d 00c4 ec38 7b03 aebd 630b c7bd
000000c0: c1f7 1d3d 6fed b43d 19dc 9a3d 8fb0 693e
000000d0: 4cba 1b3c 9bcf c4bd f1d4 913d c267 9cbd
000000e0: b6d4 8fbc f5e3 f13c a2b8 6abe fc37 21bc
000000f0: f294 7abd 3658 793e bb70 e03d 9668 6bbe
00000100: 40bb c1bc bac7 053c b958 48bd 17ca cc3d
00000110: 86d1 8abd 622a 22be 10fa b63c 163b 223d
00000120: 611b 1abe e7b3 13be 9e8d 9dbe fcd9 93bd
00000130: 2952 6ebd 5ba4 e0bd 49a3 1fbe ee4c cabc
00000140: 4e11 22be 47ad 743e cfd2 c83d edc7 163e
00000150: e3f8 bb3d 803f f5bc b338 f83d 0d3b ee3d
00000160: 14df 5a3c 425e 6d3d 428b 893d 6d5e 1d3c
00000170: bb41 73bb 932e 49bd 1b8c adbc a7a4 9b3b
00000180: a529 193e 2e4a 16be ebe0 b73e 5a48 a5bd
00000190: 747f 7f3d 7b86 28bd c973 cfbd 904f 33be
000001a0: a066 76be 68e3 bcbb 0a48 2abf 222e 0ebd
000001b0: 032e 3dbe 1460 e03e d729 a4bc 308f 86bd
000001c0: 27de 113c 8ed6 46bd eb59 abbd 82c5 12be
000001d0: 628e ea3d fbd0 fdbb 1d4a 11bd c9c5 9abd
000001e0: 16f0 aebd 89d7 ce3d e06d 1cbd 6353 b13e
000001f0: ce40 44be eaf7 8b3d 1d8c 52bc 5efe a5bd
00000200: cb85 013e 8b69 72bc 3abd 77bd 068d 3cbe
00000210: 4bba a4be 7c6c 473e f7fb ffbd ce45 403d
00000220: dea2 07bd 85fe 123e 3cab 1a3e ac54 1fbb
00000230: 5e43 c03d 3d93 01be d5fd e2bc 8f9e b23d
00000240: 9875 793d 4698 c13c 49bc 243e 1e16 77ba
00000250: 85cb 413e 1ec3 383e 9e00 a3bb 73c5 2c3d
00000260: a9cf b93d 616c 493d bbdf e43d 1402 05bd
00000270: dee2 a53d 0154 8d3d 6aba f5bb 1230 633d
00000280: 40b4 d9bc de07 8c3d b476 abbd f894 3e3d
00000290: 0271 bb3d cc8e 393d 2c16 3c3d eb1d 913c
000002a0: b160 84bd e40e 65bc b7ee 07bd 9a53 cdbd
000002b0: 7386 a8bd fab7 a03d 8db1 cebc 932c 97bb
000002c0: 3b3f b63c 194a 0cbe de8a 33bd 035c 763d
000002d0: 1cd2 b3bd c4c9 46bd 5b55 52bd db07 8ebd
000002e0: c0ed b03a b393 3c3d 62b0 cfbc e9f0 673d
000002f0: 26b0 3d3d 834e ac3d ea4d 7f3d 0cec 63be
00000300: c634 98bd 295b 45bd 8a3a b1bc 676a 18be
00000310: 8c5b 933e 7f38 95be 340c b2bd bdcc 6cbe
00000320: 7a86 b43e 7b61 c7bd 24fe db3d 5d08 80bd
00000330: 337a 2dbd 3269 4c3d 8180 2d3e aa95 813d
00000340: a6b3 45bd 3f6e 86be e55a c7bd 5ef2 65bd
00000350: 3304 a6bd 1b5c 8a3d 447f 0d3e 56de d7bd
00000360: 5c1c 83be cff0 f93d 75ec 913d f6da 083e
00000370: 392b 94bd 2775 943c 72c8 edbd a6de 463e
00000380: 2666 c9bc ce5e c93d a9f7 e23d 2040 96bc
00000390: 80a1 aebe be3c 4c3e f819 7dbd 2327 503c
000003a0: afeb 8abd e57c 803d 8353 f2bd c517 5abd
000003b0: 8380 773d ef03 d9bd 1144 f6bc 72af 8dbd
000003c0: 83d8 c2be cc2b 2c3c 22f2 77be 3b24 4f3d
000003d0: ab98 4bbe 3f96 903c 06d8 f7bd b740 24be
000003e0: dcf0 e33b 4a6a 6b3e 4e25 c2bb f9b0 513d
000003f0: 33cd d1bd dbf3 6b3e 1d10 59be 323c d13b
0.06410549 0.09769038 -0.081609786 0.014767203 -0.09152855 -0.037742697 0.14644966 -0.031627506
0.048085853 -0.020178655 0.10264376 -0.013591973 -0.0064931405 0.016208697 -0.024847802 -0.04582311
0.10136276 -0.07225135 0.10448147 -0.047607977 0.000118404554 0.07390721 0.009883978 -0.012578242
-0.0039494196 0.03445442 0.11154889 0.05204339 0.11226316 0.07461741 0.051455017 0.14228535
-0.17401464 -0.03796181 -0.012013916 0.03903829 -0.017862352 -0.07077359 0.027936928 -0.019068923
-0.057559364 -0.20419535 0.049925324 0.031832986 0.06462604 0.00011289865 -0.084967576 -0.09718969
0.038566355 0.08834349 0.075615115 0.22821258 0.009504866 -0.0960991 0.071206935 -0.07636978
-0.017557483 0.029527644 -0.22921994 -0.009840008 -0.0611772 0.24350056 0.10959002 -0.22989115
-0.023648858 0.008165294 -0.048912738 0.09999483 -0.06778245 -0.1583648 0.022336036 0.03960713
-0.15049507 -0.14424096 -0.30772108 -0.072193116 -0.058183823 -0.10968848 -0.15589632 -0.024694886
-0.15826914 0.23894225 0.098058335 0.14724703 0.09178331 -0.029937506 0.121201895 0.11632357
0.01335885 0.05795122 0.067160144 0.009605032 -0.0037118036 -0.049116682 -0.021184972 0.0047498527
0.14957292 -0.14676735 0.35913786 -0.080704406 0.06237741 -0.041143876 -0.10129506 -0.1751082
-0.24062586 -0.0057644136 -0.6651617 -0.034711964 -0.18474583 0.43823302 -0.020039482 -0.065702796
0.008903063 -0.04854446 -0.0836676 -0.14333156 0.114529386 -0.0077458597 -0.03547107 -0.07557256
-0.085418865 0.10099704 -0.038190722 0.34633932 -0.19165346 0.06834395 -0.012850788 -0.08105157
0.12648694 -0.014795671 -0.060483195 -0.18413171 -0.3217338 0.19474977 -0.1249923 0.04694157
-0.033114307 0.14354904 0.15104383 -0.0024311943 0.09387849 -0.12653823 -0.027708927 0.08721649
0.06090316 0.02363218 0.1608745 -0.0009425598 0.18925293 0.18043181 -0.004974439 0.04218049
0.09072811 0.049175624 0.11175486 -0.032472685 0.08099912 0.06900788 -0.007499029 0.055465765
-0.026575208 0.06837438 -0.0837225 0.046528786 0.09152414 0.045302197 0.045919582 0.017714461
-0.06463755 -0.013980601 -0.03318664 -0.10025711 -0.08228769 0.07847591 -0.025231147 -0.004613468
0.022246948 -0.13700141 -0.043833606 0.060146343 -0.087803096 -0.048532262 -0.051350933 -0.06935092
0.0013498589 0.046039294 -0.02535266 0.056626234 0.046310566 0.084134124 0.062330164 -0.22258013
-0.07431941 -0.04818264 -0.021634359 -0.1488434 0.28780782 -0.29144666 -0.08693734 -0.23124976
0.35258847 -0.0973539 0.10741833 -0.06251595 -0.042352866 0.04990501 0.16943552 0.06327374
-0.04826703 -0.26255986 -0.09734134 -0.056139342 -0.0810627 0.06755849 0.13818079 -0.10540454
-0.25607574 0.12204134 0.07125179 0.13364777 -0.072348066 0.018122269 -0.116104975 0.19420871
-0.024584841 0.09832536 0.11082394 -0.018341124 -0.3410759 0.19945046 -0.061792344 0.012704643
-0.06783234 0.06273822 -0.11832335 -0.053245325 0.060425293 -0.105964534 -0.030061753 -0.06918229
-0.3805581 0.010508489 -0.2421346 0.05057166 -0.19882457 0.017649768 -0.1210175 -0.16040312
0.006956203 0.22989765 -0.005924857 0.051194165 -0.10244217 0.23042242 -0.21197553 0.0063853497
