autoencoders/checkpoint/autoencoder/val_best.pth (torch_old, 256818 bytes, 16 tensors)

encoder.0.weight f4 [100, 224]
00000000: a238 2a3e 29ef d33d 2e13 43bd ff85 d93d
00000010: e63c 5cbc b8f5 9cbc effa e4bc da76 153c
00000020: a1f1 9a3d 034b 533c bafe 9dbb 58b6 b6bc
00000030: 73c3 59bc f124 b13c a8fd 113e f1b9 eabc
00000040: 5246 89bc 0e59 fd3e 2b6e 953c e642 933c
00000050: d8d7 e93c 0405 283c 95b0 76bc 4e27 563d
00000060: 2f30 94bd 85af 1a3b 798c 1b3e 2c41 b4bd
00000070: 0234 8a3d d327 8f3c 6b5b 48bd 5568 fa3c
00000080: 96d2 b43c af5e 03bd fdb7 133d 2ddd 4e3d
00000090: cdbd 0f3d 0896 e03c e362 043d 75e1 adbc
000000a0: b6d5 54bc b492 043d 5e06 593c 49d9 66bc
000000b0: 836e 52bd eceb 59bd 0a2a 06be 1cb5 0abe
000000c0: d330 bfbd 30e7 afbc d298 a93d 4045 52ba
000000d0: 217b 21be 07e3 df3c 6f83 30bc 8cf5 973c
000000e0: 3d71 993d efeb ea3b a8bc 97bc bad0 b3bb
000000f0: 7707 1c3d c980 1ebe 6b2b 87bd 3f3c 313d
00000100: 8ca6 913c 0d4c cbbd 6522 843c e21c a83b
00000110: 42a7 c4bc 64a0 bebd 1095 283d 8dee 4d3c
00000120: 56b6 7abc c822 33bc b8b8 70bc c17b ebbc
00000130: cd04 b83b d85c a6bc c638 d33c a269 343e
00000140: e570 5e3c 40db 90bd 6f38 953c 51d9 51be
00000150: d050 24bc 06b8 f5bd fc11 d8bc 740a 79be
00000160: b5d7 58be 8de5 22be b8f7 363e 5afa 71be
00000170: c187 85bd 8152 8dbc 737d 7bbe 3b8d 1f3e
00000180: 081f ebbe 3a6a 08be 630e 48bd 878b e53c
00000190: 5274 93bd 6f85 f63d edf9 9bbb 4649 66be
000001a0: 2605 d2bc 756a 64bd 039f c43d 7132 54bb
000001b0: e886 853d 3211 b0bc f1cf 043e bbb8 463e
000001c0: 348c 2b3e 7362 5fbe d8e5 1dbe 7513 59be
000001d0: 7ed8 68bd ec42 553d b245 233c 63dc 843b
000001e0: 16bc 8b3e 1e37 bebc fc03 c8bd 6532 bebe
000001f0: 5995 bfbe 1c72 b5be 0127 a6be 3f20 bbbd
00000200: 5c04 0abc 7f87 a4bd ed8d 2d3d 49a7 26bd
00000210: 7784 8d3d e3d0 d63d 064c 6fbd a5c5 1abd
00000220: 21ba 6c3c c664 2abd efc4 81bd d03a 94bc
00000230: dff7 f1bc 9fc8 6a3e 4681 9c3e 5936 86ba
00000240: e1b7 3e3c c61a 9bbd 76bb 2b3d 3167 0d3d
00000250: 0afb ccbd c65a 1d3c 1e5f 653d b760 d2bc
00000260: 0738 303b 3d7d f6bc 0bd3 0ebd baa4 103d
00000270: b76c 993c 733a 9d3a d1fe 8bb9 b4af c7bc
00000280: 7da6 5b3c 75fc 3a3d 7439 6dbd 2a8a 87bc
00000290: d413 20bd cf2d 0abc 97e4 0ebd ea41 04bb
000002a0: 0b2f cdbc 89ad 7e3c 65c1 3e3b e8db 1bbb
000002b0: aa10 eb3c 0920 023c f790 bdbc 0070 29bc
000002c0: d58d 35bc 00de e83c 9c1c b5bc 28bf 413b
000002d0: 4b01 3ebd fbe9 e9bc 8a11 f0bd 16d0 2abe
000002e0: 92b0 c1bd 738b d5be 7ae2 303e 7df0 1cbe
000002f0: 2c45 20be 7039 ea3b 650e 6bbc 761c a3bc
00000300: 431b e7be 254d 9ebd 8c82 eebe c79c f2be
00000310: e383 69be 3f74 d1bd a125 eb3d a057 153e
00000320: e90b 94be e48e 14bf dd6c 2bbf 4ea5 e5be
00000330: f92b c6bd 2aca 6abc 9998 e2bc 4226 75bd
00000340: f283 1fbc 5cd9 ae3d 2bb0 6cbd 51d2 8fbd
00000350: f1e9 71bd 7418 9dbd 42d3 6cbe 552d dcbd
00000360: 305a 87bd c85d 0bbf 4535 98bd a893 eebe
00000370: b9f6 e2bd 1fad 0cbf d343 68bd 843a 0ebf
00000380: 63c4 003d c4c0 43bd 523f 9fbc 5a7a 993d
00000390: d4f2 c63d d41a a23b c44d a5bd b50c acbd
000003a0: 04ad a5be df8b 1dbe 29a7 3ebb f634 97bd
000003b0: 66e5 20bd 64c2 4d3d 0fcd 7a3d 1930 30be
000003c0: 65a1 01be 9dd9 66bc 425b 0abc 1542 bb3d
000003d0: 7b0c 803d 0df0 b83c 22dc d83d 5ea9 923d
000003e0: 90fd 12be cb55 19bd 03b6 d4bd b1e1 01be
000003f0: da29 42be 9f44 bfbd 4e4f 2fbd b493 bbbd
0.16623166 0.103483506 -0.047625713 0.10621261 -0.013442254 -0.019160137 -0.027951686 0.009122575
0.07565618 0.012896302 -0.0048216255 -0.022303745 -0.013291228 0.02162406 0.14256918 -0.028653117
-0.016757164 0.49482006 0.018241009 0.017976236 0.028545305 0.010255102 -0.015056749 0.052283578
-0.07235753 0.0023603153 0.15190305 -0.08801493 0.06748201 0.017475044 -0.048915308 0.030567328
0.022073071 -0.03207272 0.036064137 0.0505039 0.035093118 0.02741529 0.03232087 -0.02122567
-0.012990406 0.03236647 0.013246147 -0.014089891 -0.051374923 -0.05320351 -0.13101974 -0.1354565
-0.09335484 -0.021472543 0.08281101 -0.00080211833 -0.15769626 0.027329935 -0.010773524 0.018549703
0.074923016 0.0071692388 -0.018522575 -0.0054875286 0.038093057 -0.15478815 -0.06600078 0.043270346
0.017779611 -0.09926615 0.016129682 0.005130396 -0.024005536 -0.09307936 0.041157782 0.012569082
-0.015302261 -0.010933585 -0.014692478 -0.028745534 0.0056158067 -0.020307943 0.025783908 0.1761842
0.013576721 -0.070730686 0.018215386 -0.20493056 -0.010029033 -0.1199799 -0.026375763 -0.24320394
-0.21176036 -0.15907879 0.17867935 -0.23630658 -0.06520034 -0.017251255 -0.24559574 0.15581219
-0.45922112 -0.13321772 -0.048841845 0.028020633 -0.07199921 0.12037169 -0.004760018 -0.22488889
-0.02563722 -0.055765588 0.096006416 -0.0032378698 0.06519872 -0.021492574 0.12969948 0.19406407
0.16752702 -0.21814899 -0.1541971 -0.21198829 -0.056847088 0.052065775 0.009965347 0.0040545925
0.27291936 -0.023219641 -0.09766385 -0.37147823 -0.3741863 -0.3543862 -0.32451633 -0.0913701
-0.008423891 -0.08033656 0.04237168 -0.04068688 0.06910031 0.10489061 -0.05842211 -0.037786145
0.014448673 -0.04160001 -0.0633639 -0.01809445 -0.02953714 0.22928093 0.30567378 -0.0010239586
0.01164052 -0.07573466 0.041926824 0.03452224 -0.100088194 0.009604162 0.055998914 -0.025680883
0.0026888864 -0.030089015 -0.034869235 0.035313345 0.018728597 0.0011995569 -0.00026702 -0.024375774
0.013406393 0.045650918 -0.05791612 -0.016545374 -0.03908141 -0.008433773 -0.03488597 -0.002018089
-0.025046846 0.015544304 0.0029106971 -0.0023782197 0.02869447 0.007942208 -0.023140414 -0.010341644
-0.011081179 0.02842617 -0.022108369 0.00295634 -0.04638795 -0.028553953 -0.11722095 -0.16680941
-0.09457506 -0.41707954 0.17273894 -0.15326114 -0.15651387 0.0071479604 -0.014346694 -0.019911032
-0.45137987 -0.07729558 -0.46583974 -0.47385237 -0.22804217 -0.1022725 0.114817865 0.14584208
-0.28915337 -0.58030534 -0.6696299 -0.4485268 -0.09676356 -0.014330426 -0.027660655 -0.05985094
-0.009736048 0.08537552 -0.057785194 -0.070225365 -0.059060995 -0.0767068 -0.23127463 -0.10750834
-0.06608999 -0.54439974 -0.07432035 -0.46597028 -0.11082215 -0.5495166 -0.056705307 -0.5555804
0.03143729 -0.047791258 -0.019439373 0.0749404 0.097142845 0.004947046 -0.08071473 -0.08400861
-0.32358563 -0.15385388 -0.0029091334 -0.07383148 -0.03928127 0.050234213 0.061230715 -0.17205848
-0.12659223 -0.014089969 -0.008444609 0.091434635 0.062523805 0.022575403 0.10588862 0.071612105
-0.14354539 -0.037435334 -0.103862785 -0.1268375 -0.18961278 -0.0933926 -0.04280024 -0.091590315

encoder.0.bias f4 [100]
00000000: b9a1 8cbf 83f3 eebf d365 6fc0 6c52 18bf
00000010: 7b5c 1ebf 3664 8a3e f56b 993e b2da 043f
00000020: 35f5 0b3e 394c f63e 15ce 363f 7fa6 aebf
00000030: d12d 34bf 3585 c73e 49b4 9ebe 20ff a1be
00000040: 58a1 07c0 6c1f 78bf d70f 02c0 fa9b 9bbe
00000050: 755e 5cbf 927b e7be 3213 a7be 86aa 87be
00000060: c363 74bf 18d4 4abd 12c4 97bf 7876 d6bf
00000070: 675b b0bf 8986 9f3d 857f 8c3e 5df6 2abf
00000080: 9f6d cdbf cecc d93e 513d 953e c7f5 c1bd
00000090: aa73 ddbe 72eb 85bf 7177 b73e 8367 41bf
000000a0: f4f5 93bf 753e 1cc0 7b4d 86bf ef76 76be
000000b0: 2417 ffbe 4893 1abf d239 b2bf 8d2b 03bf
000000c0: af8b b53e abe2 e4be 5d93 57bf bfd8 f9be
000000d0: 1474 bebe acfd 493d f35c 893e 7352 57bf
000000e0: dd39 78bf 1131 163f 0010 a4be e9fd 97bf
000000f0: 9345 09bf 3010 883e 0cb9 d0bf 8b73 94bf
00000100: 7c24 a3bf 8dab 43bf 6521 e53e ccc6 1ebf
00000110: ff9a f5be 01bd b5bf 1170 0fc0 e7ae a5bf
00000120: 9410 1cbf 341c c5be d632 d0bf b5e3 5abe
00000130: 07a1 55bf 8887 b6bf f835 773e cc77 8f3e
00000140: d939 d2bf 29b7 6ebf bbf0 b0be ecb0 36be
00000150: 4438 c03e 141b f7be fa30 afbf 6b7c 09c0
00000160: 619d 51bf d813 993f 617e 5e3e c907 ce3d
00000170: 9849 8a3f 6b06 7fbf 73f7 a8bf c3a5 96bf
00000180: 0abe 4e3f bb02 93be d8f1 e3be 806a 90bf
-1.0986854 -1.8668064 -3.7405899 -0.59500766 -0.61859864 0.2702958 0.29965177 0.518962
0.13667758 0.48105028 0.71408206 -1.364456 -0.7038241 0.38968816 -0.30996922 -0.31639957
-2.1192226 -0.96922946 -2.0322168 -0.30392438 -0.8608163 -0.45211464 -0.32631832 -0.26497287
-0.95464724 -0.049518675 -1.1856711 -1.6754904 -1.3777894 0.077893324 0.2744104 -0.6678217
-1.6049079 0.42539066 0.29148343 -0.094707064 -0.43252307 -1.0462477 0.35833314 -0.7554857
-1.1559434 -2.441312 -1.0492395 -0.24068807 -0.49822342 -0.60380983 -1.3923895 -0.5123833
0.35458133 -0.44704184 -0.84209234 -0.48798177 -0.37197936 0.049314186 0.26828727 -0.8411018
-0.9696329 0.5866862 -0.32043457 -1.1874362 -0.53621787 0.2657485 -1.6306472 -1.1597761
-1.2745509 -0.7643364 0.4475204 -0.6202209 -0.47969815 -1.4198304 -2.241215 -1.2944001
-0.60962796 -0.3849808 -1.6265514 -0.21375926 -0.83448833 -1.4260111 0.24141681 0.28021085
-1.6423904 -0.9324823 -0.34558663 -0.17840928 0.37542927 -0.48262846 -1.3686821 -2.1482189
-0.81880766 1.1959181 0.21727897 0.10060079 1.0803709 -0.9961917 -1.3200516 -1.1769336
0.80758727 -0.2871302 -0.4452045 -1.1282501

encoder.2.weight f4 [64, 100]
00000000: 1edf 85bd 9bd5 093e ec33 25bb cada cc3d
00000010: 62fd 213e f747 26bd 3cf2 aabc f8b4 283e
00000020: 82af 343c e240 843d d148 b2bb 0452 643e
00000030: 14e8 953e 5b15 dd3d 9382 ae3d 7a08 8ebe
00000040: 5740 d5bc c226 4abd 1327 0cbe a092 cb3d
00000050: 8ae6 5cbc b99d c7bd 81ac 2fbb f87d 01be
00000060: d9d9 01bf 3fc0 473d 13c6 0fbe 70e9 80be
00000070: 4082 63be a5c6 bcbd 3bfa 4e3e 1735 50be
00000080: b2b9 403e 18a3 a5bc 154f 37bc 3c28 993d
00000090: 6271 31bd 4045 473e 0e5a 61bc 3ab6 713d
000000a0: 6da3 e73d 3909 01bd 995b 4cbd e28a 3ebb
000000b0: bd79 f4bc de2e 61bc 09b9 133e 29a2 81bd
000000c0: db10 8cbd 598e d23d 5fa6 c23e 3d95 ba3d
000000d0: 8989 8d3e 06eb a73d 202a 8abc 7675 653e
000000e0: f6b4 57bc 7488 a13d c8b2 86bc 4678 ccbc
000000f0: 34f1 2cbf f7a5 b63d 25b8 343e 7abd 4e3e
00000100: e7ca 973e d61d d4be d1d5 5fbc 9bbe bbbe
00000110: 6f87 50bd 2c79 dc3c 9297 0cbe c22f f1bd
00000120: 9158 62bd e570 e9bc 6b32 e7bd 9c04 72be
00000130: d3fb 9cbc 3dae 8abd f652 f7bd 165d ad3d
00000140: 50e4 abbd e362 5abd 2b96 f9bb ea2e 783d
00000150: 7a05 a1bd 9a6d dabc b70f 6939 ad90 9c3d
00000160: 6837 9b3b e6a3 4dbd 7ffa e93d 179f 33bd
00000170: cec9 ca3c 3d52 b3be 1518 27be 2109 89be
00000180: ed9b 15bc 5689 013d 67f9 e9bd 5ec2 86bb
00000190: 2f62 173d 3502 5a3c b426 5bba 5a66 6dbc
000001a0: 6100 26bc 811c 5fbb 9246 cbbc 0271 62bc
000001b0: f301 92bc ddec 353b ebd4 863b 80a6 e2bb
000001c0: 28f5 973c 605a 1e3f 4f3a 243d 9a79 733d
000001d0: 3744 1fbb 24a8 513c 0e87 c9bb 0c81 f03c
000001e0: bf4f 573d 0591 19bd 027f 32ba ef87 343d
000001f0: d366 1dbd be77 22bc dfef 8fbc a6f8 8fbc
00000200: d8a1 e83d a314 29bd f361 5d3c 646b 9dbc
00000210: a6ae 5e3c ff8a e93c 37e0 b93b d694 d13d
00000220: dab7 00bb cebd 4b3c 5b5a 8eba 0534 7dbd
00000230: 1770 79bb a2c1 3d3d 988d 4d3e 2a21 2e3b
00000240: a133 923c 1817 113d 1857 b7ba f3c4 143d
00000250: b724 d23c 287b 043d 799d 93bd c758 83bd
00000260: c30a a0bd 7667 1a3d 816f e13a 98e4 883b
00000270: d0f3 bebc cf1c ba3b dc7a 1dbd aca2 89bc
00000280: f86e 2a3a ecd4 753c 3851 27bd 8e95 43bd
00000290: 1848 8e3d ad52 e63c a11a a4bc 23ce 14be
000002a0: bad7 903c 0972 853d 4e82 583d d7f6 6a3c
000002b0: 000d 653d 25cf f73c 0130 b23d e6d6 debf
000002c0: 7d9b bc3c 25ce 693d 879c 42bd ac00 033d
000002d0: fac4 67bb 83f0 733c 4526 d63c c356 debc
000002e0: 8ae2 883b 9123 2e3c b18d 11bb 520a 393d
000002f0: 340a 16bd 203e bfbc 48ad 973c e6e1 97ba
00000300: 61b0 603b 5174 02be 791e bbbd b12e 633d
00000310: a8d9 b23b 6723 3e3a 628e db3d 363f f4ba
00000320: 288e 363e bc0b 3abe a333 b9bb c2cd 843d
00000330: d4f5 babd 48d3 d4bb d0d2 253c dee6 793d
00000340: 81c8 8dbd dc14 0f3d 9309 75bc df2e 80be
00000350: 249e 87be 51a1 acbd 265b f6bd 0dc4 c23e
00000360: 087d 37bc e15f 473d 0590 4e3d 1897 3abd
00000370: 7104 093e 7b3c f1bc 8ccf 6bbc e70e 9d3e
00000380: 334c 49be d7de bd3c a8e7 4abe b97a 373e
00000390: 66bd 193f c9b3 4fbd b89e 513d 494e e1bd
000003a0: 41c6 943d 6a2a 323c 3f63 443c cd71 213e
000003b0: ae27 19bd ea2e aebd aaab 4abc 372a 733d
000003c0: e9e6 85bd fdff bf3d f5cc 88be 08d2 aebd
000003d0: 772c e7bb 053f b03e 3a94 fa3e 6f77 fabd
000003e0: 8097 8c3d 3496 2ebe 9372 d3be 0fbf 5ebe
000003f0: 5a9f 08be aa65 383d 9753 aabb df7e ce3c
-0.06536697 0.1346039 -0.002520795 0.10002668 0.15819314 -0.040595975 -0.02086746 0.16475284
0.011028172 0.06457688 -0.0054408093 0.22296911 0.29278624 0.10795089 0.08520999 -0.27740842
-0.026031656 -0.04935337 -0.1368678 0.09940076 -0.013482699 -0.0974688 -0.0026805701 -0.1264571
-0.50723034 0.048767325 -0.14040403 -0.251781 -0.22217655 -0.09217576 0.20212643 -0.20332752
0.18820837 -0.02021937 -0.011188288 0.07478377 -0.04332102 0.1946001 -0.013754381 0.059011675
0.11310468 -0.031502936 -0.04989204 -0.002907448 -0.029843206 -0.013744084 0.14426054 -0.06329758
-0.068391524 0.10281057 0.38017556 0.09110496 0.27643993 0.08199124 -0.01686579 0.22408089
-0.013165703 0.078873545 -0.016442671 -0.024959695 -0.67555547 0.08918374 0.1764837 0.20189467
0.2964699 -0.41429013 -0.013661818 -0.36668858 -0.05091041 0.026913248 -0.13729694 -0.11776687
-0.055260245 -0.028496215 -0.11288913 -0.23634571 -0.019163048 -0.067715146 -0.120763704 0.0846502
-0.083931565 -0.053316962 -0.0076167784 0.060591616 -0.07862373 -0.02666359 0.00022226466 0.07644782
0.0047368295 -0.050205134 0.114247315 -0.04385289 0.024754431 -0.3502368 -0.1631778 -0.26764777
-0.009131414 0.031625114 -0.11424523 -0.004112526 0.03695887 0.01330619 -0.0008359954 -0.014489735
-0.010131926 -0.003404409 -0.024813924 -0.0138208885 -0.017823195 0.002775959 0.0041147373 -0.006916821
0.018549517 0.6185665 0.04009467 0.05944214 -0.0024302134 0.0127964355 -0.006150133 0.02935841
0.052566286 -0.037491817 -0.0006809087 0.04407495 -0.03842814 -0.009916244 -0.017570434 -0.01757462
0.11358994 -0.041279446 0.013512122 -0.019216247 0.013591444 0.028508661 0.0056724804 0.10233466
-0.0019640834 0.01243539 -0.0010860668 -0.061817188 -0.0038061196 0.04632724 0.20073545 0.002657006
0.017846884 0.035422415 -0.0013987748 0.036320638 0.025652273 0.032344013 -0.0720777 -0.06413417
-0.07814553 0.037696324 0.0017199368 0.004177641 -0.023309618 0.005679704 -0.038447246 -0.0168012
0.0006501521 0.015004378 -0.04084894 -0.04775005 0.069473445 0.028115595 -0.020032229 -0.1453176
0.017680991 0.06515891 0.052858643 0.014341078 0.0559206 0.030250141 0.08700562 -1.7409332
0.023023361 0.05708136 -0.047512557 0.031983063 -0.003536521 0.014888885 0.026141295 -0.02714098
0.004177396 0.010628597 -0.0022209699 0.045175858 -0.036630824 -0.023345053 0.018515244 -0.0011587709
0.0034284818 -0.12739684 -0.091366716 0.05546445 0.0054580756 0.00072532 0.10720517 -0.0018634561
0.17827666 -0.18168539 -0.0056519075 0.06484558 -0.09128919 -0.0064949133 0.010121062 0.061011188
-0.06923009 0.034932002 -0.014955896 -0.2503576 -0.2648784 -0.08429206 -0.12029104 0.380402
-0.011199243 0.04867542 0.050430316 -0.04555425 0.133806 -0.029447785 -0.014392745 0.30675432
-0.19657974 0.023177547 -0.19814932 0.17917909 0.60054624 -0.050708566 0.051176757 -0.1100126
0.072643764 0.01087437 0.011986553 0.15766068 -0.037391357 -0.08505042 -0.012370029 0.05936643
-0.06538183 0.09374998 -0.2671887 -0.08536154 -0.007054861 0.3442308 0.48941213 -0.122298114
0.06864834 -0.17049485 -0.4129835 -0.2175257 -0.13342038 0.04501883 -0.005197953 0.025206981

encoder.2.bias f4 [64]
00000000: 842f ccbe b54e 82bd 7c03 87bd 895e 913e
00000010: 7799 15bf 2196 303e e812 813f 0a4e 053f
00000020: 7315 e2be 00f7 303f e2f4 5dbe 14c0 8c3c
00000030: 181f 03bc af63 cdbe 5cb8 25bf 61da c93d
00000040: 0dc7 14bf ce65 2e40 c4e3 48bf d1b6 a9be
00000050: 2c07 80bc ab00 9c3e 75df 503e 41d2 18be
00000060: ab12 a2bd 0892 6d3f 74c1 cc3f f978 f93e
00000070: bfe5 08bf c50c 4b3f 124d 5d3f abc5 833f
00000080: e99c a2bd 662a 2cbe 67fd d93e a144 85bd
00000090: 6dc4 2fbf 9515 9f3e 0c55 eebd 33ab 8d3d
000000a0: ab85 f83e a148 953e 98f1 213f 6b43 983e
000000b0: aa46 9c3c b4d6 5e3e 037d ab3e ca0f 3d3f
000000c0: 3d0a 22bd e349 aa3e 888e 76be d95b a4bd
000000d0: 4795 073f 1f43 c13d 0cb9 1b3f 9d5b 1bbf
000000e0: 570e b63e 00e1 b83e 9c3e 833d 6a9e 63bf
000000f0: 3355 82be 2d41 ce3d 3d5f 5bbe 5d48 b83f
-0.39880002 -0.063626684 -0.065924615 0.28392437 -0.58437294 0.1724477 1.0083895 0.52072203
-0.4415699 0.6912689 -0.21675447 0.017181434 -0.008003019 -0.40115115 -0.64734435 0.098561056
-0.5811623 2.7249637 -0.7847254 -0.3314729 -0.01562842 0.3046926 0.20397742 -0.14923956
-0.07913717 0.9280095 1.5996537 0.48725107 -0.53475565 0.7931636 0.86445725 1.0294698
-0.079400845 -0.16813049 0.42576143 -0.065072306 -0.68659097 0.31071153 -0.11637315 0.06917419
0.4853948 0.29156974 0.6325927 0.29738936 0.019076664 0.2176159 0.33493814 0.7385222
-0.039560545 0.33259496 -0.24077809 -0.08025331 0.52962154 0.094366305 0.60829234 -0.60686666
0.35557815 0.3610916 0.06408426 -0.88913596 -0.25455627 0.10071025 -0.2142305 1.4397084

encoder.4.weight f4 [32, 64]
00000000: 6e63 9abd 3c88 aabe d0da 91bc dbcc 123e
00000010: 6d42 1e3f 534c a1bc f6c8 093d 64c9 0dbd
00000020: 8ca9 ae3d 8e09 1abe 98fd a33e 4ed4 393e
00000030: 764a c5bd f7bb a23c 299e ebbc 89b7 7abe
00000040: 4e46 573d 475d fcbd d18e fd3c f1b4 b5bd
00000050: 7aa0 203d b395 9cbd b4d5 053e 3658 733e
00000060: 4de9 8bbe 5bd9 d93d 8a0f ecbe 49f1 1b3c
00000070: 20e2 4cbe eb2c 2e3e 5a2e 1d3c 68ed 6abd
00000080: 39b6 1fba 4f61 a9bc a892 30be d4ee be3e
00000090: 2dfc 1dbe fe55 aa3d 5424 5fbe 3ac9 fcbd
000000a0: daee 823e a454 5abe e0e1 af3d 1a91 afbd
000000b0: 77c5 4d3e 9d88 903e 6529 5abe 8917 ce3d
000000c0: e661 f03d 7eec 47be 9fbd 0c3e 31d3 a33c
000000d0: e50f b73d 8680 713e dd97 aebd 0f45 373f
000000e0: f310 473e 366a b2bd 15b1 c5bc 4fdb 02bf
000000f0: 35e1 52be 0b47 99bd 92f1 dc3b cfad f13d
00000100: 3976 82bd 6c27 ae3c bfa4 083e 77ba 8d3d
00000110: b75e 023c 9fbc 713d c614 373e 306b 933d
00000120: a998 dc3d 87a2 e13e a164 9cbd 5d45 c2bd
00000130: 286b c0bc 5616 e03d 8e1d 18be 1cdc a33e
00000140: 965c 87be 9bb8 03be 5901 2d3e 824a e13d
00000150: 6316 0f3e 37be f73b 2bda a7be 90d9 6f3e
00000160: 9fe4 0cbe 4557 ccbe 82d7 e23d df7b 32bd
00000170: dd25 603c 4e85 b83d ade3 12bf 4378 3a3e
00000180: 6481 dbbd 010c 06bd f53a f6bd b0cb a63c
00000190: 6843 fcbe b9b0 1d3e 5053 2d3f fd1b 00be
000001a0: dc00 d63d a9af 363f 4cdd d53b 07ac 0b3e
000001b0: 75ed 1abc 5252 183e 00ba b5bc 2c52 113e
000001c0: a29b a93e c8a4 1238 5283 023f 4a9e bcbd
000001d0: e4d8 8a3e fe13 a53e d8b6 823e 8c71 f83d
000001e0: 8701 113e f1d4 7a3d 4fa8 d8bc d09d 943e
000001f0: 4178 bc3d 93a3 e1bd f1ee 45bd ddeb 8dbe
00000200: 70d9 6fbb 7f4f c23d 1d1f a0bd bce9 383d
00000210: 65fa 06be f9c4 0e3f fae5 03bd 14b2 ccbd
00000220: 2eb1 8b3d c84a d8bd e0f7 a93d 1cb4 183c
00000230: cf50 31bd 72ef 7b3d 522f a4bc 1abd ecbc
00000240: be75 3c3e 93de a5bc eeb5 973c 6ea3 1e3d
00000250: d6cc 8e3f f1bb e5bc 90a8 0abd 3834 833d
00000260: fd6e 03bd aacf 44bc d0fd 08be 1df6 0a3e
00000270: b99d b53d 9c52 18bd 58b8 913d 7cfb 08be
00000280: 0b38 9c3d 7872 cd3d 6a03 56bc 5ddc 8839
00000290: dc46 4bbe d139 103e 2063 cd3d b7f4 103b
000002a0: 6039 c13b de8a 003d 21f7 173d 1aed 5cbd
000002b0: a3ad bf3d 8027 723b 4878 d03d 6414 e43d
000002c0: 2b93 b33d 336f a9bd 7a09 cabd ba40 723d
000002d0: 501d d63d a9c6 8e3c 959b 2e3c c8ba 0ebe
000002e0: e5e3 e63c 2906 3ebe b9a0 9d3c c6ef 80bb
000002f0: 2c61 cf3c 8c85 00be 527b 9b3d 1c1b 023e
00000300: 0b94 04bb 240a aa3c 4c02 5cbb 2560 593c
00000310: d46f 90bc 4573 ef3b 6e9d 863c 8a61 8fbc
00000320: e7b9 4fbd 2bef df3c 0c52 d9bb 61c1 1fbb
00000330: 84c1 d8bb 25d8 a1bd 2b1f 1dbc 54a5 903c
00000340: fe7c e63c 3f8c 9ebb c051 05bc a5f4 debc
00000350: f418 fc3b 55d9 46bc 0df1 8ebc d014 503d
00000360: ab69 6e3b 578e 20bb dcd3 8f3b 613b cb3c
00000370: 3ffb abba d230 2f3c 2c33 fc3a d1a6 3d3c
00000380: b5cf 493c c489 783c 9179 843d f423 2a3d
00000390: 5005 2d3c 0503 a9bc 80b5 543c 7b51 85bc
000003a0: 72bd 95bc c20d 973b b763 5e3b 7d29 37bc
000003b0: 7b61 8dbd 0ad6 883c d790 143c 36d7 1cbc
000003c0: c96d 88bc f64b 7abb b286 c13c 2743 153d
000003d0: 881c 893c 7926 4cbd 104e 953c 3945 b13c
000003e0: a4a5 443d f9d7 e03b b2e2 233d 7f82 35bc
000003f0: f7a0 55bc b370 803c c029 9eba 794d 053d
-0.07538496 -0.33307064 -0.017804533 0.14335959 0.6182011 -0.019689715 0.033638917 -0.03461589
0.08528432 -0.15042707 0.32029414 0.18147394 -0.09633343 0.01986502 -0.02876194 -0.24484076
0.052557282 -0.12322479 0.03095189 -0.088724025 0.039215542 -0.0764574 0.13069803 0.23764119
-0.27326432 0.106371604 -0.46105605 0.009517976 -0.20008135 0.17009322 0.009593571 -0.057355314
-0.0006092522 -0.020676283 -0.17243445 0.37291586 -0.15428229 0.08317183 -0.21791202 -0.123430684
0.25572854 -0.2132135 0.08588004 -0.08572598 0.20094858 0.28229228 -0.21304853 0.10063083
0.11737423 -0.19523808 0.1374421 0.019998165 0.089385785 0.23584184 -0.08525059 0.7158975
0.1944006 -0.087116644 -0.02413229 -0.5111589 -0.20593722 -0.074842535 0.0067426646 0.118007295
-0.063702054 0.021259032 0.13344096 0.06920331 0.007957152 0.059017774 0.17879018 0.07198179
0.10771305 0.4406931 -0.07636381 -0.09485886 -0.023488596 0.1094176 -0.14855024 0.32003868
-0.26437825 -0.1286339 0.16895045 0.11000539 0.13973384 0.007560517 -0.32783636 0.23422837
-0.13759087 -0.3991033 0.11076261 -0.043575164 0.013680902 0.09009801 -0.57378656 0.18209939
-0.10718039 -0.03272629 -0.12022964 0.020360798 -0.49270177 0.15399446 0.6770525 -0.12510677
0.10449383 0.71361786 0.006526625 0.13639842 -0.009456028 0.14875153 -0.022183418 0.14191502
0.3312655 3.4962577e-05 0.5098163 -0.09209879 0.271186 0.32241815 0.25530124 0.12131032
0.14160739 0.061238233 -0.026447443 0.2902665 0.09202624 -0.110175274 -0.048323575 -0.27719012
-0.0036598109 0.09487819 -0.078184344 0.04514478 -0.13181455 0.55769306 -0.032201745 -0.09994903
0.06820904 -0.105611384 0.082992315 0.009320285 -0.043289956 0.06150765 -0.020042095 -0.028898764
0.1840429 -0.020247733 0.018519368 0.038730077 1.1156261 -0.028043719 -0.03385216 0.06406444
-0.03208827 -0.012012402 -0.13378072 0.13570447 0.08867974 -0.037188157 0.07115239 -0.13377184
0.07627877 0.10031599 -0.013062337 0.00026104125 -0.1985125 0.14084555 0.10028672 0.0022118518
0.005896732 0.031382434 0.037100915 -0.053937055 0.093592905 0.0036949813 0.10179192 0.11136702
0.087683044 -0.08273163 -0.09865089 0.05914376 0.1045481 0.017428713 0.010657211 -0.13938439
0.02818484 -0.18557037 0.019241678 -0.003934833 0.02531489 -0.12550944 0.07591881 0.12705654
-0.0020229842 0.020756789 -0.0033570705 0.013267552 -0.017631449 0.0073074424 0.01643249 -0.017502565
-0.0507144 0.027335724 -0.006632095 -0.0024376737 -0.0066148657 -0.079025544 -0.009589951 0.01765696
0.028135773 -0.004838496 -0.0081371665 -0.027216265 0.0076934043 -0.012136777 -0.017448926 0.0508011
0.00363789 -0.0024498904 0.0043892693 0.024808588 -0.0013121142 0.010692792 0.0019241325 0.011575417
0.012317588 0.015169565 0.064684995 0.041538194 0.010560349 -0.020631323 0.012982726 -0.016274204
-0.018278811 0.0046097944 0.0033933946 -0.011179325 -0.069033585 0.016703624 0.009067736 -0.009572795
-0.016653912 -0.003819225 0.023623798 0.036440995 0.016737238 -0.049841378 0.0182257 0.021639453
0.04800953 0.0068616834 0.040011115 -0.011078476 -0.013038865 0.01567874 -0.0012066886 0.032544587

encoder.4.bias f4 [32]
00000000: 8d61 9a3f f53d c9bc 9abd 98bf 026d 7bbe
00000010: 3f31 8abd 09f1 5a3d 7c5e 863e 58ef 00be
00000020: 3205 f43c 3724 373e 95da abbe 6abf dc3d
00000030: 554b 5d3e 1233 d83d 853b 4dbe 8656 863e
00000040: 6936 3e3f 4903 cfbd 1144 863e ebf2 1f3f
00000050: e8be 23bd cc27 ee3c efdc aa3e 787a be3d
00000060: b5cc dfbe 78b4 133f eb2c 8f3e 7b76 7fbe
00000070: 1a24 553d 1c80 eb3e ef97 75bf f358 b93e
1.206102 -0.024565676 -1.1932862 -0.24553302 -0.06747674 0.053452525 0.2624396 -0.12591302
0.029787634 0.17884909 -0.33565202 0.10778697 0.21610768 0.10556616 -0.20042236 0.26237887
0.74301773 -0.101080485 0.26223806 0.6248004 -0.039976984 0.029071711 0.33371684 0.09300703
-0.43710867 0.5769725 0.27963957 -0.2494754 0.052036382 0.45996177 -0.9593496 0.36200675

encoder.6.weight f4 [16, 32]
00000000: 0be7 8bbd 93a1 8b3d df46 cabc dcd6 d33b
00000010: 11eb 44bc 8aa5 2d3c 2e09 e23c 11ef 87ba
00000020: f30d 00bb 51d9 2bbc b47d 40bb b031 32bb
00000030: 1b07 f03a 196d 48be ef57 b3bd f812 ffba
00000040: 64ab fcbc 9f4f 39bc 13f8 1fbc 8bc6 50be
00000050: e394 f3bc 411c 96be 723b 8cbb 9f5a f6ba
00000060: 8d40 98be 3f23 b73c 2615 20be 42f8 273c
00000070: 7762 10bc 59e0 8738 ab63 bdbd 2a2e 063d
00000080: 5aa6 a9be ac24 abbd 4de0 61bd ac86 693b
00000090: fbb5 293b 5fde 933b fdd3 cabd d583 b0bb
000000a0: 50aa 3bba 82e2 83bb 5c95 afbb 51a1 a7bb
000000b0: 2294 323c 35c9 933d ae8c 7a3c 8706 fdbb
000000c0: ceee dbbb d5f3 dbbb 613c 843a 5a2f 1ebe
000000d0: d786 e2bc 91a9 bc3d b263 843b d892 9bbb
000000e0: e86d b23d 8057 2bbd 88a5 c5bc fd61 61bd
000000f0: 2ff5 dbb8 9cd5 7bbb debc a1be f2a4 c23d
00000100: dd7f dcbd d3ee 293e eaaf 33be 7942 6cbb
00000110: 4e14 94bb 3707 7ebb 2e33 6dbd 5cbd f43c
00000120: 8f78 fd3b c64a 43bc 0714 8cbc c6bc b73a
00000130: d2c8 8d3c 4afd 053c 9ae8 26be d427 03bc
00000140: 8101 6a3e 4e61 fcbb 3061 4e3d ff08 f33c
00000150: 1a04 bfbe 6a1e 0a3c 7a4e 6c3c 30d1 da3b
00000160: aaa9 acbc 6a79 ab3d 3ed5 413d 0034 9b36
00000170: 1915 8eba b404 a3bb 62c6 d63c 3f05 1abe
00000180: 5bc9 663e 2a44 bcbc 1313 02be 5372 3abb
00000190: 8415 713b bc83 d8bb 2e06 3dbe a572 e13c
000001a0: 7a67 c53a 157d 37bc 0419 89bc 5f62 9d3b
000001b0: 96d4 173b 0d94 243b a068 ab3c 08dd 17bb
000001c0: 7e8c f8bd 0e72 353a 127d 633d e18a febc
000001d0: 5dc3 58be a983 e83c 56f9 b63c 3612 a93c
000001e0: 2263 e8bd 018e 73be 5e9e 94ba acf1 6a3e
000001f0: f75f b83b 8619 ae3a c0dd bfbd 99e6 1d3e
00000200: d297 2e3b 4ee1 69bd da4f 85bd da57 463c
00000210: 7af0 553b 056a afbb f05e 353c 88a0 313d
00000220: d195 493b 274c 3fbc 2b45 a93b d67a 64bb
00000230: d480 edba 9640 cd3d 30ac 143e 0b87 28bc
00000240: e682 3dbe 2668 ad3b 6792 0fbb 7b9a 88bd
00000250: 4028 dfbd 3e2d c63c 85bb b5bb a422 0bbb
00000260: f06d 7abd 1c6f 40be 7b50 acbc aa9f 82be
00000270: c98f 50ba b7e9 7dbc fff0 ee3b 4090 98be
00000280: 432a b5bd 405f a13d eaf1 1abd efa8 81ba
00000290: b22f be3b f0a6 a4bb 774f 4a3e 7997 26bc
000002a0: ab8e 4f3b 84c4 e83a 502c ea37 5cac 9d3b
000002b0: d4dc afba 8600 d53e 88ed 44bc acc1 b7ba
000002c0: f2a4 d0bd bf77 873b 2b80 38bc 4b83 c13c
000002d0: bfe0 c5bc 2382 fdbd b753 a03b deec e73a
000002e0: c589 babd 601c 96bd 1868 f0bd 089e 173e
000002f0: d12d 4b3a 1551 08bc 518d 083d 1dbe 893d
00000300: ffbf 6e3d 1730 2d3d 59ae 70bd f80e e93b
00000310: 47aa e5ba b061 18bb 8f63 6d3e 7493 633c
00000320: 40a6 3abb 6470 09bc 88e0 aaba fcc8 2fbb
00000330: 9110 433b d66b 2cbe 6801 283d 6840 58bc
00000340: 308e 70be 777f 89b8 692c 563c 9f14 12be
00000350: 0e38 1abe 9bde a1bd 6a6c 47bc c5e6 b8bb
00000360: 4383 a83e 448a ca3c e36f cf3d bff5 62bd
00000370: b903 1cba 6301 58bc 07d2 853d 8190 103d
00000380: 49a8 2e3b 80d6 4d3e 0a13 64bd 09a9 1fbb
00000390: fa1f 4338 c400 07bb d709 0fbe a4b6 3f3c
000003a0: b7ab 68ba a3b7 b63b 36e9 383b 7737 b0bb
000003b0: c70b 0bbb 0152 b2bc c1d7 4f3d b5b4 dc3a
000003c0: b831 ebbd 7f84 c23a 8f5f 20bb 7240 393e
000003d0: 95f7 96bd 1bc0 cbbd 4add 093c 4211 593a
000003e0: 7f6a e83d a5c7 32bd 6591 dabe e571 babd
000003f0: 6b79 2eba 211c 843a c239 9dbd 50f8 d53c
-0.06831177 0.06817927 -0.024691997 0.006464822 -0.012018935 0.01059855 0.027592268 -0.001037093
-0.0019539564 -0.010488824 -0.00293718 -0.002719026 0.0018312664 -0.19572867 -0.087570064 -0.0019460609
-0.030843444 -0.011310487 -0.009763735 -0.20388238 -0.02973408 -0.2931843 -0.0042795474 -0.0018795318
-0.29736748 0.022355674 -0.15633067 0.01025206 -0.008812538 6.47909e-05 -0.09247526 0.03275887
-0.3313473 -0.08356604 -0.05514555 0.003563325 0.0025895822 0.0045125927 -0.09903715 -0.0053868094
-0.00071588624 -0.0040248046 -0.005358381 -0.005115666 0.010899575 0.072161116 0.01529233 -0.0077217254
-0.0067118173 -0.0067124167 0.0010088795 -0.1544775 -0.027652187 0.0921203 0.004040205 -0.0047477297
0.08712369 -0.041831493 -0.024126783 -0.05502509 -0.00010488403 -0.0038426882 -0.31589407 0.09504117
-0.107665755 0.1659501 -0.17547575 -0.0036050363 -0.004519022 -0.0038761625 -0.057910137 0.02987545
0.007735319 -0.011919683 -0.017099394 0.0014018051 0.017307673 0.008178065 -0.16299668 -0.008005101
0.22852136 -0.0077020293 0.050385654 0.029667376 -0.37307817 0.008430103 0.014423007 0.006677769
-0.021076996 0.08372767 0.047322504 4.6254136e-06 -0.0010840028 -0.004974926 0.026217643 -0.15041064
0.22537749 -0.022981722 -0.12702589 -0.002844949 0.0036786506 -0.006607501 -0.18459389 0.027520487
0.0015060746 -0.0111992555 -0.016735561 0.0048029865 0.0023167483 0.002511266 0.020923913 -0.0023172516
-0.12136172 0.00069215975 0.0555392 -0.031072082 -0.21168275 0.028383093 0.02233569 0.020638566
-0.11347033 -0.23784639 -0.0011338701 0.22943753 0.0056266743 0.0013282753 -0.09368467 0.15419997
0.0026640785 -0.057099633 -0.06509371 0.012105906 0.0032644556 -0.0053532147 0.011069998 0.043365985
0.0030759464 -0.011675871 0.005165716 -0.0034863255 -0.0018120059 0.100220844 0.1451881 -0.010286103
-0.18506965 0.0052919565 -0.002190733 -0.0667009 -0.10896349 0.024191495 -0.0055460357 -0.0021230364
-0.06114 -0.18792385 -0.02103447 -0.2551244 -0.0007955996 -0.0154976165 0.0072919126 -0.29797554
-0.088459514 0.078794956 -0.037828363 -0.0009892265 0.0058040256 -0.0050247833 0.19756876 -0.01016795
0.003167073 0.0017758762 2.7915608e-05 0.0048118066 -0.0013417252 0.41601962 -0.0120195225 -0.0014019511
-0.10187711 0.004134148 -0.011261026 0.023622176 -0.024155019 -0.12378337 0.004892792 0.0017694493
-0.09108309 -0.07329631 -0.11738604 0.14806378 0.00077506626 -0.008320113 0.033337895 0.06725714
0.05828857 0.04228219 -0.05876002 0.00711238 -0.001752206 -0.0023251586 0.2318251 0.013890136
-0.002848044 -0.008388612 -0.0013036886 -0.0026822677 0.0029764513 -0.16838011 0.041016966 -0.013198949
-0.2349174 -6.556411e-05 0.013072112 -0.14265679 -0.15060446 -0.07903787 -0.012171844 -0.0056427442
0.32912645 0.024724133 0.101287626 -0.055410143 -0.00059514825 -0.013183924 0.065342 0.03529406
0.0026650599 0.20101357 -0.05568222 -0.0024362227 4.6521403e-05 -0.0020599822 -0.13968597 0.01170126
-0.0008875685 0.0055760904 0.0028215176 -0.0053777057 -0.0021216737 -0.021767618 0.05074287 0.0016838523
-0.114840925 0.0014840512 -0.002447102 0.1809099 -0.07371441 -0.099487506 0.008414576 0.00082804647
0.113484375 -0.043647427 -0.42689052 -0.09103755 -0.0006655666 0.0010079184 -0.07677032 0.026119381

encoder.6.bias f4 [16]
00000000: b27c b83c 29f6 fb3c 900c b43d 8d28 8a3d
00000010: adc0 69bd ee06 133e c3e6 1abe ed22 d0bd
00000020: d8c6 f2ba b3fe 13bd f0d7 983d 92c2 dabc
00000030: 912d 6dbd 09d3 88be bdbf 903d 8d3c 23bc
0.022520397 0.030757027 0.087914586 0.06746016 -0.057068516 0.14358112 -0.15127091 -0.101629116
-0.0018522395 -0.036131572 0.07463062 -0.026704106 -0.057904784 -0.26723507 0.07067821 -0.009963167

decoder.0.weight f4 [32, 16]
00000000: f407 d2bd c8dd 1c3e dc00 abbd d3fa 833c
00000010: 8285 32be 4d2e ec3b 33e0 1c3e dfc2 873d
00000020: ff97 70be 8b10 1e3e a36d 743d 2c28 243d
00000030: db9d 40be 1291 07be 7949 12be 09e2 373d
00000040: cc1b e3bb 0997 4bbd 9d95 aebd a8d2 bcbd
00000050: 4360 5f3d 65d7 0dbd 82bf 08bd a28f debb
00000060: 32a4 2c3c 3128 0e3d bfc6 acbc f54d 71bc
00000070: 279d 16bd 907d dd3c 1667 fb3b e422 0ebc
00000080: 65c9 27bd cfed d23d c6b8 73be a032 15be
00000090: 1f42 e3bb 7fe9 373b 0320 45bd d1e7 66bd
000000a0: 5826 02be e0ae aa3d cce7 66bd ee7b 603d
000000b0: b791 11be ba8e 8bbd f98b 883d 697a 0e3d
000000c0: e749 dcbe 9bdf aebe ece7 403d e6c9 d4bc
000000d0: a284 f53d ac27 5c3d 7bd3 97bd 116d cd3c
000000e0: 23a5 03be 9ffb bbbc 27f0 86bd 7dd0 36be
000000f0: 3c1b 2e3c cec3 f8bd d518 05be 093b 7d3b
00000100: 13dc 953d 1a6b 3fbd bf6f d3bd 9ea0 32be
00000110: 160a 74bc a266 263e 5006 94be ba52 213d
00000120: 0943 2a3e 2767 933d 53f7 573c 200f e23d
00000130: 6bd0 9bbc 97b3 223e 5a99 363e e2ae d0bd
00000140: d698 99bd 9d40 b0bd 8f6d bdbd 6f18 b4bd
00000150: 55de 26be 23fc 68be 9018 503d 32d1 4b3e
00000160: 1744 ffbc 8f30 803d 9d4f 42be 5974 8e3c
00000170: cf58 cb3d 142f 583d 3844 923d 526a 95bd
00000180: ea2b a8bd dd25 503e 0730 10bd 535f acbd
00000190: 583b 113e 7aac f7bd fc54 16be e253 e43c
000001a0: b055 dc3d 56cc b3bd b1cf 42bc a7b2 cd3d
000001b0: 6323 033d 9a8e 2fbe 4a10 8abe fbbd 9fbe
000001c0: 5b82 6ebd 70c6 703e a233 8f3d ac88 6d3d
000001d0: fb19 763d 31fe 99bd 101f 6e3d ba8e 943d
000001e0: bad8 813e cc1e 19bd d5a2 7fbc 7366 2c3e
000001f0: c0af 8b3d 4925 31be 14a9 c23e 11af fa3d
00000200: 27b7 ca3d 01dc d2bd 53ca 163e 2627 9e3d
00000210: dddf d9bd 6394 c1bc 355b 1cbd bca3 213e
00000220: e1a1 1f3e a16a 013d 3a03 0e3d 4dbc 55be
00000230: 22de 60bc 3a79 26bd 1dcf d7bd ddba 693e
00000240: 7955 75bc 1c9e 8cbb 9cc5 9a3d 9d7a a6bd
00000250: 965d b33d 0126 d2bc dcb8 e33b e74b 5c3d
00000260: fbd6 18be 0f5c 7fbe 4c51 4ebe f051 48bc
00000270: dd12 f13c 318f 463d ac05 62bb 3ee4 e33d
00000280: 3b51 893d b912 503e 6f04 7f3d 03e2 fb3d
00000290: 3428 133e 8b83 823d 1574 47bd bf81 a7bd
000002a0: 7b1c 3ebe ed65 1a3d d36b c1bc e481 a13d
000002b0: ecff d43e 60c7 1a3e df15 a8bd e298 cdbd
000002c0: cc64 9e3e a232 47be 2d34 47bd 0dee 8dbe
000002d0: 91bf 363e a9b3 963c 94a2 e53c d401 db3d
000002e0: 5be5 463d 3232 073e de42 39be bb93 25be
000002f0: b26f 21bd 15d9 e8bd 23c7 8f3c 8642 93bd
00000300: 0808 33bd 1d3e 1d3d 5db4 6ebe c560 8ebd
00000310: c9b7 64bd d98c a03d 3a3e cbbd f74e 23bd
00000320: a99d 823d 3e4d b0be b419 543d c9b8 3fbd
00000330: 3486 91bd 6cb3 bfbc fcba a33c 2d5d 433d
00000340: b076 25be 8359 093e 2587 cb3d db57 08be
00000350: 55ba 0bbe 59ee 18bd 017e 2d3e 8100 9abd
00000360: 1107 923d 8f17 933d f0df 23be ef76 a53c
00000370: 30eb 093c 3d6b 40bc 1376 b6be 5f10 393e
00000380: eda6 0abc 9714 ce3d f0f5 5cbc 0ab0 cb3c
00000390: a293 4abb 95ed 5e3d f67e 0f3d 756e 01bf
000003a0: ced2 a63d 7733 91bd bf1c 393e f564 a4bd
000003b0: edaa 26bd 7d66 dc3d 767d cd3d 1c74 1cbd
000003c0: 7651 9c3d fe7f 4abc 9b4e 32bd 2651 94bd
000003d0: 0861 16be 962e de3d 8a60 0a3c 8232 a43d
000003e0: 1bb9 e93d c70d 5cbe d51d 80be 5cc2 fbbb
000003f0: 706e 9f3c 5cd9 473e 0776 65be 8db7 88bd
-0.10255423 0.15318978 -0.08349773 0.016110813 -0.17433742 0.007207668 0.153199 0.066289656
-0.23495482 0.15435998 0.05967487 0.040077373 -0.18810217 -0.13238934 -0.1428584 0.0448933
-0.006930804 -0.049704585 -0.0852463 -0.09219867 0.05453516 -0.034629244 -0.03338576 -0.0067920247
0.010537194 0.0347063 -0.021090863 -0.014728059 -0.036770966 0.027037412 0.007672201 -0.008675311
-0.04096355 0.10299265 -0.23800954 -0.14570093 -0.0069353725 0.0028062759 -0.048126232 -0.05637342
-0.1270994 0.08334136 -0.056373402 0.05480569 -0.14215742 -0.06814332 0.06667323 0.03478471
-0.43025133 -0.34154972 0.047096178 -0.025975179 0.11988188 0.05374877 -0.074133836 0.025076421
-0.12855963 -0.02294713 -0.06588774 -0.1785297 0.01062661 -0.12146722 -0.12997754 0.0038639924
0.073173665 -0.046733 -0.10324048 -0.17444083 -0.014894983 0.16250089 -0.28911066 0.039385535
0.16627134 0.07197409 0.013181525 0.11038041 -0.01902028 0.1588882 0.17831936 -0.10189606
-0.07499854 -0.08606074 -0.09249412 -0.08793723 -0.1629575 -0.22752433 0.050804675 0.1990402
-0.031160397 0.06259262 -0.18975683 0.017389463 0.09929048 0.052779272 0.07141918 -0.072956696
-0.08211501 0.20326944 -0.035202052 -0.08416619 0.14182794 -0.12093444 -0.14680856 0.02787203
0.10758531 -0.08779208 -0.011890338 0.10043841 0.03201617 -0.17144242 -0.26965553 -0.3119963
-0.058229785 0.23513198 0.0699227 0.05799167 0.06008337 -0.07519186 0.058135092 0.072537854
0.25360662 -0.037382886 -0.015602787 0.16835956 0.06820631 -0.1729938 0.3801962 0.122404225
0.09898215 -0.10295869 0.14725618 0.07722311 -0.10638402 -0.023630327 -0.03817292 0.15785116
0.15589096 0.03159583 0.034671046 -0.20872612 -0.013724836 -0.040642954 -0.105375506 0.22825189
-0.014973992 -0.004291309 0.07557222 -0.081288554 0.087580845 -0.025652887 0.006949527 0.053783324
-0.14925759 -0.24937461 -0.201482 -0.012226567 0.02942794 0.0484764 -0.0034488244 0.11127518
0.067049466 0.20319642 0.062260088 0.12298968 0.14370805 0.06372746 -0.04869469 -0.08179044
-0.18565552 0.03769486 -0.023610985 0.07886103 0.41601503 0.15115118 -0.082072966 -0.10038926
0.30936277 -0.19452909 -0.048633743 -0.2772068 0.17846514 0.018396216 0.028031625 0.10693708
0.048558574 0.13202742 -0.18091914 -0.16169636 -0.03941316 -0.1136953 0.01755101 -0.07190423
-0.04370883 0.038389314 -0.2331099 -0.06952051 -0.055839334 0.078393646 -0.09923978 -0.03987023
0.063777275 -0.3443393 0.051782325 -0.046807084 -0.07105675 -0.023400985 0.019986622 0.04769628
-0.16158557 0.13413052 0.09937886 -0.13314764 -0.13645299 -0.03733668 0.16942598 -0.07519627
0.07130254 0.07182228 -0.16003394 0.020198314 0.0084178895 -0.011744318 -0.35636958 0.18072651
-0.00846265 0.10062521 -0.01348637 0.024864215 -0.003091075 0.054425795 0.03503319 -0.5055917
0.081456766 -0.07089894 0.18077372 -0.080270685 -0.04069035 0.107617356 0.100336954 -0.038196668
0.07632725 -0.012359617 -0.043531995 -0.0724204 -0.14685452 0.10848729 0.008445868 0.08017446
0.11412259 -0.2148963 -0.2502276 -0.0076830816 0.01946184 0.1951651 -0.22408305 -0.066756345

decoder.0.bias f4 [32]
00000000: 248a 82bc fadb e9bc 4ac6 dfbd 08ef 8abd
00000010: 7eaf 01be 5ba4 99bc 0831 c5bd dd5a 93bd
00000020: aaf1 113d 664f 67bc 5af6 20bd 93ef 86bd
00000030: 2c76 39bd 3a1b 57bd 689d 3a3d 02a5 8e3d
00000040: 3b16 e43d a106 63be 1676 593e 6af8 aebb
00000050: 12b0 23bd e0c3 8dbb 8d89 01bb 7b36 bf3d
00000060: 4b06 af3a 8f01 7f3e 95c8 1bbe f0e7 c0bc
00000070: 0b9b c9bd 75ff c93d 9d16 c63c 07ce 5c3d
-0.015935011 -0.028547276 -0.109264925 -0.06783873 -0.12664601 -0.018755129 -0.096284926 -0.07195065
0.03563086 -0.014118051 -0.03929744 -0.06588664 -0.045278713 -0.0525162 0.04556027 0.069650665
0.111370526 -0.22170497 0.21236452 -0.005339672 -0.039962836 -0.0043263286 -0.0019765825 0.09336563
0.0013353316 0.24902938 -0.15213235 -0.023548096 -0.09844025 0.09863178 0.024180705 0.05390742

decoder.2.weight f4 [64, 32]
00000000: 32c4 90be 4d7f eabc f8aa d6bd 926f d5bd
00000010: f041 923d 70cb 163c 35bd 26be 33c0 e43c
00000020: 437c c3bc 9b50 d6bd 0e52 8dbd e339 be3e
00000030: 5387 b0bd 06ca 56bf 882a 00bf 9329 5c3e
00000040: 23f1 083e f4bd 123e 774a c23c 635f 543d
00000050: bc6a bd3d 1484 053d 7f96 953e 659e b6bc
00000060: f81e 12be 5917 0cbe a602 46be 3c14 79bd
00000070: 7056 68be 5702 693c f8d4 043e 476e a9bd
00000080: 653f 283e d969 05bf c046 e3bd eacf 7a3d
00000090: e4a5 31bf 8dcc 143f ef4d b33e 78c6 ce3d
000000a0: dd3b 873e 2c80 cfbe be22 b93e 8c29 e9be
000000b0: d72c 2d3e 9bb4 6dbf 47b9 03bd b05f b6be
000000c0: 829a bfbe a000 9ebd 6d8f 41bf 0540 abbe
000000d0: 1747 adbd 07bc 353f 15ab 3f3d 84a5 173f
000000e0: 9909 5abf 2d51 a7be 585f d8be 9e59 01be
000000f0: 235b 91be 71ab ed3e 9dd6 0c3f 6d37 1dbe
00000100: 9359 ef3d b2a2 d8bc 356d 0ebe 04dd 2dbc
00000110: efee ce3e 1cea 91be 1310 1b3d 4889 7a3c
00000120: 361b e73d 03e1 76be 1119 edbd 160d a93e
00000130: 4a24 473b 485d cb3d 1ee6 dc3e e62f 12bd
00000140: 09c5 813c 5faf 1bbe e764 86be 8d86 8abe
00000150: 244d c3bd 7a8a 833d caa8 78be 4025 d4bd
00000160: 267e 6b3d 63d0 84bf a624 be3e 9f31 66be
00000170: 76e4 b53c abd9 5a3e c9a7 79be 9d3f c03e
00000180: e7a1 bbbe 35b0 473d a824 bf3d d82d 29be
00000190: e1e1 893e 0c1d 383e 44cb 0ebd a332 e7bd
000001a0: d071 8b3d c4db 8cbe bec3 97bd 9ac3 ec3e
000001b0: f401 e7bc 30ad b03e 9dfc 0b3f 5998 ed3c
000001c0: c2eb c0bd aea5 d03d f4cd 8a3d ad41 a1be
000001d0: db02 3abd 6de6 0a3f 361e 3bbe a673 063e
000001e0: b7da 55bd 3ecc 543f 047e 51bb d590 50be
000001f0: 377d 43be 9ffc 67be 5fb9 54be 6578 2abd
00000200: 182c 713d 9ea6 933c d070 d2bd d87a 25bd
00000210: 221f c3bd 64aa 04be 7827 36be 143f ab3c
00000220: 5c34 afbc d4aa f0bd 3058 8fbe e5db 2ebe
00000230: 495a 873e f160 2bbf 1839 433f 61d5 a7be
00000240: cf90 073f 0fa2 49bf 4a56 a3be 44fc 773d
00000250: 20ab 603e 503c a1bd 9721 343e 0feb 6ebe
00000260: a72d 7cbe fcf5 843e c0a3 f3bd 071e f33d
00000270: dfc1 6cbd d219 66be dc0d 1ebe a4c1 3dbe
00000280: 806a 6a3c e030 8fbd 93cb 243e 4fea 9ebe
00000290: 5166 d43a b9da df3d 1bac eb3e ef49 1a3f
000002a0: c8a2 d9be 9810 ab3b 8587 b43e a1b9 8e3c
000002b0: 53fb 8fbe acc2 ca3e 27cb 693e 5c44 ef3d
000002c0: 95d4 13be da2e 35bf b806 21bf a86b 2bbe
000002d0: 677d 59bd 9d46 a83d 57d9 443e c485 993d
000002e0: 1117 a4be 2e72 fabe 51ad 54be 5edb 0fbe
000002f0: 8dd3 453e 40a9 e6be 46d1 633e 33c1 fabe
00000300: 90a6 2ebd 41ae 38bd e1a6 563c 0d8f c83e
00000310: dcdd 99bd 1b3f 78be a625 f3be aef7 b0be
00000320: 14fc 033e cef6 4d3e d0eb 2e3e cc6b 18bc
00000330: fe52 d1bb 6315 e53d 4b97 6dbd 3ad7 7e3e
00000340: 36b2 c1be 6740 60be 89cf 363b bf65 dd3d
00000350: 36ce b93c 92af dcbc 19f3 133d 9c33 54bc
00000360: 3139 0cbe 4a5a 34be d957 603e 7ebc 01bb
00000370: 304e cebc 3b14 d13c 2b86 e03c c508 c8be
00000380: d2d5 61be 51de d53c a721 463d fd04 323f
00000390: 9d59 163f fcab 6e3e 07d9 d1be a231 903e
000003a0: 2314 73bd 9f17 c4bd 95fd 24be 5c11 31bf
000003b0: 2030 4fb9 a3eb 65be d323 20be 9828 b3bc
000003c0: 3fe8 f63d 129b 883d 7ebb c03e 8cb6 a8bd
000003d0: 7b85 8a3d 587a 2f3d 2cfe 1f3e 5e37 893c
000003e0: e683 c0bd 612f 8ebc cbab 59be 97ca 30be
000003f0: 35fd 36be 4a60 6c3d 2368 643d dc90 7d3d
-0.28274685 -0.028625155 -0.104818285 -0.10421671 0.07141483 0.009203777 -0.16283114 0.027923679
-0.023862964 -0.10464593 -0.06900416 0.3715354 -0.08619561 -0.83902013 -0.500649 0.21500234
0.13373236 0.14330274 0.023717148 0.05184878 0.092488736 0.032596663 0.29216382 -0.022292325
-0.14269626 -0.13680781 -0.19336948 -0.060810313 -0.22689223 0.014221749 0.12971866 -0.08272987
0.16430433 -0.52114636 -0.11097479 0.06123344 -0.69393754 0.5812462 0.35020396 0.10096449
0.2641286 -0.40527475 0.3615932 -0.4553951 0.16911636 -0.9285371 -0.032159116 -0.3561988
-0.37422568 -0.07714963 -0.75609475 -0.3344728 -0.08460825 0.7099003 0.046794016 0.5923693
-0.85170895 -0.3267912 -0.42260242 -0.12631842 -0.28389844 0.46419862 0.55014974 -0.15353175
0.11687007 -0.026444767 -0.13908847 -0.010611776 0.40416667 -0.28498924 0.037857126 0.015291519
0.11284487 -0.24109273 -0.11577047 0.33017796 0.003038662 0.09929901 0.43144315 -0.03569021
0.015841024 -0.15203618 -0.26248857 -0.2705578 -0.09536198 0.06422897 -0.24283138 -0.103586674
0.05749335 -1.0376095 0.37137336 -0.22479866 0.022203665 0.21372096 -0.24380411 0.37548533
-0.3664696 0.04875203 0.093331635 -0.16521394 0.26930144 0.1797983 -0.034861818 -0.11288955
0.068088174 -0.27511418 -0.07410382 0.46242982 -0.028199174 0.34507132 0.5468233 0.02900331
-0.09419967 0.10187851 0.06777564 -0.3149542 -0.04541288 0.5425785 -0.18273243 0.13130054
-0.052210536 0.8312415 -0.003196598 -0.20367749 -0.19090734 -0.22654961 -0.20773838 -0.041618723
0.05887994 0.018023785 -0.102754235 -0.040400356 -0.095274225 -0.12955624 -0.17788494 0.020904101
-0.021387272 -0.11751333 -0.2799697 -0.1707607 0.2643607 -0.66944796 0.76258993 -0.32779983
0.52955335 -0.78762907 -0.3190177 0.060543314 0.21940279 -0.07872832 0.17590939 -0.23331855
-0.2462679 0.2596892 -0.11896467 0.11870962 -0.057802077 -0.22470787 -0.15434974 -0.185309
0.014307618 -0.06991744 0.16093282 -0.31038138 0.0016204809 0.1093039 0.46029744 0.60269064
-0.42507005 0.005220484 0.35259643 0.0174225 -0.28121433 0.39601648 0.22831403 0.116829604
-0.14436562 -0.70774615 -0.62900877 -0.16740286 -0.05309811 0.082165934 0.19223534 0.07496217
-0.32048848 -0.48915237 -0.2076924 -0.14048526 0.19318981 -0.45051003 0.222478 -0.48975524
-0.042639315 -0.045088056 0.0131013105 0.3917164 -0.075130194 -0.24242823 -0.4748966 -0.34563965
0.12889129 0.2011368 0.17082143 -0.0093030445 -0.0063880673 0.1118572 -0.058005612 0.2488679
-0.37831277 -0.21899568 0.0027894697 0.10810422 0.022681337 -0.026939187 0.036120508 -0.012951758
-0.13693692 -0.17612568 0.21908511 -0.0019796188 -0.025183767 0.025522342 0.027407726 -0.3906919
-0.22054222 0.026106985 0.048371937 0.6953886 0.5873049 0.23307794 -0.4098589 0.28162867
-0.059345376 -0.09574818 -0.16112359 -0.69167113 -0.00019758986 -0.2245317 -0.15638666 -0.021869943
0.12056016 0.06670202 0.37643045 -0.08237943 0.06763741 0.042841285 0.15624303 0.016750034
-0.09400158 -0.017356576 -0.2125694 -0.17264782 -0.17870028 0.057709016 0.055763375 0.061905727

decoder.2.bias f4 [64]
00000000: 45a6 b63e 78d5 43be 5747 a5be 2e1b 2c3f
00000010: 396a debe 9853 2fc0 3aef 733f 92b0 af3e
00000020: 21af e43d 38fe a43f 0ded 36bf 353f cb3e
00000030: e577 cebe 54e7 483f 76bc 1fbf 885c 7d3e
00000040: 9d9f dc3d 3448 923f ce15 9c3e 9782 1ebf
00000050: c01b b5bf 3167 8fbf ea14 41be 9a1e 383d
00000060: 0c5c e0bd 7f9e 823f 7672 0d3f 5ec2 f4bf
00000070: dfd9 e7be 7ab0 41be 202d 383f 32c0 c63e
00000080: a435 043f ff2e a5be c753 3bbf a8f1 a03f
00000090: c580 113e 88e1 56bf 0c6d 0abf d8f2 0fbf
000000a0: 7a44 97bf 1525 8abe e0b6 763f 90a1 57c0
000000b0: 8240 0c3f 915b 0cc0 b306 803e 04ff 3abe
000000c0: 5044 573f a037 a53f 01c0 bfbf d11e 4f3f
000000d0: 2ecc 2c3e a588 dbbe 0e10 79be 67a8 8ebd
000000e0: 2d34 523f 05c1 cabe 0d0a de3e aea9 80bf
000000f0: 7dea 3f3f 4c11 173f 0e6f db3e a3cf aa3c
0.3567373 -0.191244 -0.3228099 0.6722897 -0.43440416 -2.7394772 0.95286906 0.343144
0.11166216 1.2890081 -0.7145546 0.3969666 -0.40325847 0.7847798 -0.62396944 0.24742329
0.10772631 1.1428285 0.30485386 -0.61918014 -1.4149094 -1.1203367 -0.18855634 0.04495106
-0.109550565 1.0204619 0.5525278 -1.9121816 -0.4528341 -0.18914977 0.71943855 0.38818508
0.5164435 -0.32262418 -0.7317471 1.2573748 0.14209278 -0.83937883 -0.5407264 -0.56229925
-1.1817772 -0.26981416 0.96372795 -3.369236 0.5478593 -2.1930888 0.2500511 -0.18261343
0.8408861 1.29076 -1.498047 0.809064 0.16874763 -0.4287769 -0.2432253 -0.06965714
0.82110864 -0.39600387 0.43367043 -1.0051782 0.74967176 0.5901077 0.42858166 0.020850962
